trained_models/Board_timestep_1/model_BetaCVAE_De_CMLP_En_CMLP_Prior_RealNVP_Con_Id_Dis_None_comment_test/BetaCVAE_training_2024-11-01_10-24-44/final_model/model.pt (torch, 25748 bytes, 44 tensors)

encoder.net.0.weight f4 [16, 3]
0.24100487 0.44835037 -0.4593602 -0.46968937 -0.20614544 0.6369873 0.058773473 0.58966744
0.00038672623 0.14462276 -0.040540792 0.0110871615 -0.5218608 -0.5885792 -0.1094382 0.16944847
0.25246328 0.5873575 -0.12891531 -0.4270693 0.28065 0.6295119 -0.47071964 0.41348055
-0.24021178 -0.06521887 0.9284358 -0.5427648 -0.21284615 -0.3295954 -0.3730829 0.6235863
-0.3070564 -0.2658104 -0.5385072 -0.294767 -0.29410478 0.6175998 0.5677209 0.63956904
0.101753615 0.07904941 0.19501193 -0.5828804 -0.6818698 -0.192789 0.52124095 0.4939273
00000000: fbc9 763e 2e8e e53e 4331 ebbe 207b f0be
00000010: ca17 53be 9a11 233f 74bc 703d 72f4 163f
00000020: 84c1 ca39 fd17 143e 1a0e 26bd eda6 353c
00000030: ab98 05bf 20ad 16bf 2321 e0bd e683 2d3e
00000040: de42 813e 105d 163f 6002 04be d4a8 dabe
00000050: 5bb1 8f3e b127 213f 2a02 f1be b9b3 d33e
00000060: 14fa 75be 7991 85bd f8ad 6d3f a2f2 0abf
00000070: 57f4 59be bac0 a8be b904 bfbe 5aa3 1f3f
00000080: 7f36 9dbe 4d18 88be 9cdb 09bf b3eb 96be
00000090: e794 96be 051b 1e3f 2856 113f ccba 233f
000000a0: 3364 d03d a8e4 a13d 35b1 473e a637 15bf
000000b0: 058f 2ebf 7b6a 45be 0c70 053f 0ae4 fc3e

encoder.net.0.bias f4 [16]
-0.24022536 0.46133682 0.42087358 0.6985381 0.3576978 0.31892908 0.45805225 -0.3585038
0.51324433 -0.6310549 -0.33298287 -0.052293055 0.57133186 0.6072338 -0.606689 0.32983634
00000000: a3fd 75be 5734 ec3e be7c d73e 65d3 323f
00000010: 2b24 b73e ac4a a33e d385 ea3e cf8d b7be
00000020: fb63 033f d08c 21bf bb7c aabe 3e31 56bd
00000030: ce42 123f ad73 1b3f f84f 1bbf 4fe0 a83e

encoder.net.2.weight f4 [16, 16]
0.104571596 -0.06983844 0.12801786 0.051456433 0.08109319 0.30599144 -0.07193267 -0.015767584
0.30061314 0.22536352 0.31155 0.16880333 0.16048397 -0.08446598 -0.024986934 -0.0031316658
-0.35950598 0.2643134 0.09696377 -0.24158461 0.07150258 -0.097327545 0.08420013 -0.0076773716
0.3508919 -0.02871933 0.15073165 0.18638949 0.23185214 0.1648665 -0.3305388 -0.05894527
0.10225957 0.036213133 -0.21057247 -0.16331694 0.21911527 0.1500239 -0.1250373 -0.08549323
-0.25404727 -0.020594917 -0.19632411 -0.20920332 -0.029755019 0.014961848 -0.10669775 0.1321721
-0.753611 0.27658772 0.10858215 -0.21082228 -0.043096434 0.15427546 0.07227079 0.07047047
0.286603 0.013776651 -0.5873353 0.06884114 -0.27124313 -0.025849627 -0.33465576 -0.26997066
0.06488739 -0.16474989 0.21685202 0.25175077 -0.21437055 0.2162283 0.18646593 0.16111802
-0.048542302 -0.17358202 0.107633 0.10592182 0.3491409 0.4322308 0.46612272 0.0091491
-0.24795875 -0.12379842 0.105846986 -0.07356816 -0.12758206 -0.26804534 -0.25733846 -0.22368973
-0.120569505 0.14567135 0.10030088 -0.24110797 0.09855608 -0.21239004 -0.05285257 -0.16013724
0.014556742 0.007867725 -0.105009146 -0.23203106 0.036558643 0.16737472 0.015888771 0.17330013
-0.023880545 0.059645012 0.3088721 -0.14079751 0.28447923 0.23251405 -0.5582708 0.2924192
-0.09982108 -0.076201275 0.13956508 -0.26570627 0.07697132 -0.27091634 0.18056923 0.01719063
-0.0025466306 -0.16483378 -0.09066822 0.062566064 -0.53496015 -0.12148013 0.4278534 0.118562765
0.1781852 0.116365835 0.061184235 0.100078836 -0.019019105 0.36416358 -0.040834796 0.19475716
-0.06916939 0.077696 -0.2024042 0.040985487 -0.22728531 0.43233928 0.0337965 0.10567863
0.23622045 -0.037178174 0.17098616 -0.09470075 0.22803688 0.06662943 -0.1258551 0.0067215734
-0.35044175 0.16781083 0.374139 -0.39629978 0.058046736 0.36278602 0.09272659 0.047041297
-0.020462546 0.19021165 -0.2134828 -0.7219138 -0.0014502106 -0.10419717 0.03029057 -0.10318771
0.01893617 0.42538384 0.22275072 -0.1844079 0.18122807 -0.7891567 -0.29853788 0.0947515
0.04085936 0.4318001 -0.030478446 0.31455192 0.27057466 -0.027304266 0.37667343 -0.10518318
0.43860078 0.18679437 -0.13182403 0.10202381 0.3572687 0.04107656 -0.1372313 0.18207626
-0.06364105 0.32220414 -0.32534435 0.018689515 0.041264538 -0.0147151705 0.23623581 0.48608378
-0.014529089 0.012401874 0.19467767 0.23178926 0.041732408 0.3063702 0.08190021 -0.45255256
0.15414293 0.19040374 -0.3415091 -0.08328671 0.37131727 -0.27130756 0.0964908 0.17475459
-0.0045110527 0.032064058 -0.24537233 0.37769958 -0.039368052 0.2834055 0.16462082 0.14628309
-0.05716905 -0.038126647 -0.15226105 0.05755604 0.052038886 -0.032140583 -0.083236575 -0.18109381
0.1458716 -0.18610603 0.10241637 -0.08406338 -0.14761297 0.017913025 -0.12986425 0.03067334
0.18201412 -0.24369419 0.22380109 0.051994383 0.114031486 0.12660113 -0.21802896 -0.076721035
0.18065032 -0.03261982 0.2891686 -0.46156263 -0.0046111043 0.053798445 -0.25520688 0.16853559
00000000: a229 d63d 7507 8fbd 1d17 033e fbc3 523d
00000010: 3014 a63d e9aa 9c3e 7051 93bd 052b 81bc
00000020: f7e9 993e b2c5 663e 7b83 9f3e c8da 2c3e
00000030: e955 243e 80fc acbd 66b1 ccbc a23c 4dbb
00000040: 2b11 b8be 1654 873e f194 c63d f561 77be
00000050: f26f 923d aa53 c7bd 1e71 ac3d 7692 fbbb
00000060: 1aa8 b33e cd44 ebbc 6659 1a3e e3dc 3e3e
00000070: a66a 6d3e c4d2 283e 623c a9be 9870 71bd
00000080: 776d d13d 3954 143d 4fa0 57be 8e3c 27be
00000090: c15f 603e de9f 193e c709 00be 1317 afbd
000000a0: 7c12 82be acb6 a8bc 3009 49be 6539 56be
000000b0: ccc0 f3bc 8a22 753c 5a84 dabd 1f58 073e
000000c0: a7ec 40bf e89c 8d3e 5160 de3d cce1 57be
000000d0: e385 30bd 63fa 1d3e b502 943d d252 903d
000000e0: a1bd 923e 76b7 613c 9b5b 16bf 95fc 8c3d
000000f0: 61e0 8abe 99c2 d3bc 0058 abbe 9839 8abe
00000100: aee3 843d 32b4 28be 750e 5e3e 7ae5 803e
00000110: f483 5bbe f46a 5d3e edf0 3e3e 1ffc 243e
00000120: 4bd4 46bd 7cbf 31be b16e dc3d 8aed d83d
00000130: 99c2 b23e 5b4d dd3e a3a7 ee3e 1be6 153c
00000140: e6e8 7dbe 078a fdbd 4ec6 d83d e7aa 96bd
00000150: dfa4 02be 3d3d 89be dec1 83be ec0e 65be
00000160: 25ed f6bd df2a 153e 8c6a cd3d 02e5 76be
00000170: c5d7 c93d c67c 59be f07b 58bd 04fb 23be
00000180: 677f 6e3c a1e7 003c 090f d7bd 8d99 6dbe
00000190: 84be 153d 4764 2b3e 2b29 823c 9775 313e
000001a0: 22a1 c3bc 544e 743d 7c24 9e3e 392d 10be
000001b0: 43a7 913e 2a18 6e3e d6ea 0ebf f8b7 953e
000001c0: ff6e ccbd 6a0f 9cbd 26ea 0e3e a70a 88be
000001d0: 24a3 9d3d 8cb5 8abe 24e7 383e 5dd3 8c3c
000001e0: 5fe5 26bb 30ca 28be 42b0 b9bd a322 803d
000001f0: 26f3 08bf 93ca f8bd 9a0f db3e 09d1 f23d
00000200: 2e76 363e 3651 ee3d 529c 7a3d 22f6 cc3d
00000210: f4cd 9bbc a673 ba3e 6342 27bd 6c6e 473e
00000220: aea8 8dbd 151f 9f3d 0c43 4fbe 66e0 273d
00000230: 7bbd 68be 935b dd3e 336e 0a3d 0a6e d83d
00000240: c6e3 713e 2448 18bd ff16 2f3e 78f2 c1bd
00000250: 8082 693e 0375 883d 29e0 00be a540 dc3b
00000260: 1a6d b3be 9ad6 2b3e 268f bf3e cee7 cabe
00000270: 6ac2 6d3d 17bf b93e 70e7 bd3d 60ae 403d
00000280: 12a1 a7bc d8c6 423e 3c9b 5abe 58cf 38bf
00000290: fe14 beba 5365 d5bd ee23 f83c 1454 d3bd
000002a0: 0720 9b3c e9cb d93e c418 643e 6dd5 3cbe
000002b0: da93 393e 2c06 4abf f5d9 98be 130d c23d
000002c0: 255c 273d e714 dd3e efad f9bc f30c a13e
000002d0: c388 8a3e 32ad dfbc 57db c03e 476a d7bd
000002e0: 4890 e03e 0647 3f3e e1fc 06be dcf1 d03d
000002f0: eceb b63e e53f 283d 5d86 0cbe 3372 3a3e
00000300: 3d56 82bd f1f7 a43e 8993 a6be c11a 993c
00000310: 0105 293d e617 71bc cde7 713e f9df f83e
00000320: 6b0b 6ebc 3b31 4b3c 9559 473e 2a5a 6d3e
00000330: 9aef 2a3d 8edc 9c3e 4cbb a73d f8b4 e7be
00000340: a5d7 1d3e 33f9 423e 48da aebe 3992 aabd
00000350: 4c1d be3e d3e8 8abe f89c c53d def2 323e
00000360: 74d1 93bb 9a55 033d e242 7bbe d761 c13e
00000370: 6540 21bd 871a 913e 5c92 283e 3ccb 153e
00000380: 182a 6abd b02a 1cbd 52ea 1bbe e2bf 6b3d
00000390: ba26 553d d8a5 03bd f077 aabd a870 39be
000003a0: 5d5f 153e 9492 3ebe acbf d13d 6c29 acbd
000003b0: db27 17be 56be 923c 22fb 04be a846 fb3c
000003c0: e961 3a3e f88a 79be 1d2c 653e 10f8 543d
000003d0: 5789 e93d baa3 013e fc42 5fbe eb1f 9dbd
000003e0: 66fc 383e 5c9c 05bd e80d 943e f051 ecbe
000003f0: bf18 97bb c25b 5c3d 7aaa 82be 9894 2c3e

encoder.net.2.bias f4 [16]
0.15369105 0.15921351 -0.21245453 0.15842053 0.32468206 0.12846936 0.33414033 -0.10646109
0.24790737 -0.14958268 -0.3513126 0.20290248 0.29770616 0.18611106 -0.19981585 0.20427164
00000000: 3061 1d3e de08 233e ae8d 59be fe38 223e
00000010: ba3c a63e 798d 033e 7114 ab3e 4608 dabd
00000020: 6edb 7d3e 342c 19be 3fdf b3be abc5 4f3e
00000030: f16c 983e e693 3e3e 879c 4cbe 962c 513e

encoder.mean_net.weight f4 [2, 16]
0.20310959 0.40107372 0.20418854 0.24261566 -0.3102547 -0.0071679587 0.35211778 -0.21301153
-0.34535348 -0.100800365 0.42485675 0.12136816 -0.38183814 -0.1555532 -0.0628252 0.19668898
-0.13956654 0.08529165 0.049815353 -0.26286808 -0.2010223 0.05275603 -0.2629269 0.14984007
-0.26180443 -0.5242929 -0.16073158 0.49069127 0.24204826 0.429152 0.18493722 -0.42396685
00000000: f6fb 4f3e 8959 cd3e cd16 513e 3d70 783e
00000010: b4d9 9ebe 32e1 eabb c848 b43e b21f 5abe
00000020: 2cd2 b0be 6c70 cebd d386 d93e df8f f83d
00000030: 4a80 c3be 5749 1fbe 80aa 80bd d668 493e
00000040: 88ea 0ebe 63ad ae3d 2f0b 4c3d a596 86be
00000050: cad8 4dbe b516 583d 5b9e 86be ad6f 193e
00000060: 3b0b 86be 0f38 06bf d296 24be e33b fb3e
00000070: 80db 773e d0b9 db3e 2f60 3d3e 2f12 d9be

encoder.mean_net.bias f4 [2]
-0.30782247 0.07042661
00000000: e89a 9dbe d43b 903d

encoder.log_var_net.weight f4 [2, 16]
-0.2194429 -0.07708111 -0.18291898 -0.49622902 -0.400089 -0.17365223 0.10693061 0.46885785
-0.073043354 0.28139225 0.49361366 -0.30055824 0.10111702 0.21048729 0.094991304 0.14061242
0.03610438 -0.13857841 -0.0750919 -0.31355053 0.14936192 -0.0898187 -0.28170666 -0.089499235
-0.43942273 0.07615286 0.22151712 -0.20553264 -0.0906782 0.25074956 0.17667331 0.034631826
00000000: a4b5 60be b3dc 9dbd 1d4f 3bbe bb11 febe
00000010: 77d8 ccbe e4d1 31be 70fe da3d 230e f03e
00000020: c197 95bd a512 903e eeba fc3e c5e2 99be
00000030: 7116 cf3d fb89 573e cd8a c23d b4fc 0f3e
00000040: 30e2 133d 80e7 0dbe c8c9 99bd b289 a0be
00000050: 55f2 183e def2 b7bd db3b 90be 604b b7bd
00000060: 04fc e0be 08f6 9b3d 62d5 623e 2677 52be
00000070: 7eb5 b9bd 3f62 803e d9e9 343e 1ada 0d3d

encoder.log_var_net.bias f4 [2]
-0.3467639 -0.08135792
00000000: 0a8b b1be fb9e a6bd

decoder.net.0.weight f4 [16, 3]
-0.043116856 -0.593478 0.961054 0.50450975 -0.31030503 0.7177963 -0.624372 0.10855939
0.51010907 0.17806484 -0.91945803 -0.41564026 -0.23003258 0.12258999 0.5194802 0.61780083
0.22235297 -0.4670643 -0.25941288 0.38144395 0.47926304 -0.75577444 0.16372643 -0.06241629
-0.3684653 0.23728591 -0.73000145 0.52304137 0.4399211 0.49020398 -0.50455356 -0.22632945
0.40941274 -0.47885153 0.5732525 -0.44475648 -0.95413125 -0.7017969 -0.21097502 0.39284775
-0.8728376 0.4813683 -0.23675714 0.3315054 0.2893773 -0.36970684 0.618085 0.16977793
00000000: 4d9b 30bd 2dee 17bf a307 763f 8d27 013f
00000010: 4de0 9ebe 80c1 373f d8d6 1fbf 6354 de3d
00000020: 8296 023f a156 363e 9a61 6bbf cdce d4be
00000030: a98d 6bbe 7610 fb3d a8fc 043f 3228 1e3f
00000040: 7fb0 633e 0d23 efbe c4d1 84be 9f4c c33e
00000050: f761 f53e 6f7a 41bf e7a7 273e 39a8 7fbd
00000060: 7ca7 bcbe 14fb 723e 60e1 3abf 0ae6 053f
00000070: 573d e13e 04fc fa3e 6c2a 01bf e8c2 67be
00000080: 8c9e d13e 072c f5be adc0 123f 1fb7 e3be
00000090: f241 74bf f6a8 33bf d609 58be 5723 c93e
000000a0: 4972 5fbf e875 f63e 7770 72be 13bb a93e
000000b0: 4329 943e 374a bdbe d23a 1e3f 44da 2d3e

decoder.net.0.bias f4 [16]
0.98236555 0.68492013 -0.3612118 0.2591761 0.49525684 0.16320337 -0.27006197 0.20057702
-0.8868943 0.22746333 0.4078926 -0.37391096 0.09018752 0.31140915 0.34347844 -0.5273873
00000000: 4f7c 7b3f ed56 2f3f c1f0 b8be bbb2 843e
00000010: 4e92 fd3e c91e 273e 9045 8abe 1064 4d3e
00000020: 810b 63bf 26ec 683e 4dd7 d03e 4271 bfbe
00000030: 3cb4 b83d 0571 9f3e 68dc af3e db02 07bf

decoder.net.2.weight f4 [16, 16]
-0.16074573 0.21500088 0.24070717 0.3711877 0.061597332 0.2346724 0.24912326 -0.26456997
-1.1762719 0.27552712 -0.18065403 0.15196586 -0.4618835 0.07373671 -0.1375422 0.1923129
0.1800345 0.29685387 -0.03771105 0.31714645 0.0053548804 -0.046558935 0.092784815 -0.13453045
-0.036244493 0.25743228 0.18414795 -1.7022251 0.105187416 -0.026618468 -0.13434063 0.05600344
-0.10977252 0.26452136 0.24785884 0.36590725 0.4877988 -0.18335617 0.027883573 0.23635639
-0.9835695 0.08996034 0.1313851 0.33113232 0.20863684 0.055685613 0.062604144 0.18730402
-0.02998149 0.36277777 0.2066812 -0.3931366 0.3168218 0.20134509 0.10546969 -0.20513622
0.03564915 -0.04840845 0.25910717 -0.05699223 -0.33084378 -0.10686726 0.40345842 0.25640374
-0.19353569 -0.2107493 -0.1947104 -0.0012056828 -0.06372598 -0.17476128 -0.10808074 0.047232717
-0.13062268 0.037123177 -0.059129324 -0.1301368 0.034346372 0.20556456 -0.18630813 -0.005438555
0.025190841 0.39970747 -0.24713579 -0.5269742 0.23049392 -0.14932828 0.03616989 -0.03257962
-0.09848861 0.0073978957 0.016265934 -0.28514788 -0.48449063 -0.10930441 -0.09463167 0.023926778
-0.16885298 0.37555075 0.02771824 -0.21144536 0.2640311 -0.21926765 0.12440267 0.19857465
-0.75209826 -0.33677086 0.08897771 0.33798 0.057216797 -0.114549145 0.19196352 0.32521367
0.20232917 0.03444064 -0.9934307 0.17867441 -0.41443112 0.17141837 0.08840602 -0.947215
0.28149962 0.3144257 -0.24686179 -0.3958559 -0.26366875 0.4039007 0.15045008 0.073227175
-0.011116955 0.38458356 0.038487412 0.2943654 -0.59200627 0.047584705 -0.39105132 -0.029258532
-0.10742 -0.3212194 0.16718571 -0.16732576 -0.07550296 0.10548586 -0.9263278 -0.26595494
0.21195678 0.10330461 0.12922467 -0.25777638 0.31588852 0.19619378 0.3017396 -0.021211715
0.32323202 0.3543945 0.037222244 -0.29567876 -0.47425005 -0.24430671 0.41877759 -0.012512199
-0.4007759 0.2654316 0.37432373 0.29570857 -0.3754994 0.3365226 0.42829713 0.13501096
-1.2210019 -0.04745446 -0.79751337 0.17699195 -1.7515795 0.19828299 0.26904356 0.20066623
-0.06286159 0.2757516 -0.16087922 0.34078875 -0.30580983 0.079055324 0.27897266 -0.029968757
1.1801629 -0.033826217 -0.13533434 -0.17406255 0.35363555 0.31717363 -0.27725643 0.20182352
0.024939662 0.091063246 0.25039244 -0.2685556 0.1931358 -0.38204056 -0.17495963 0.23988628
-0.7095117 0.060676526 -0.22928393 0.06734609 -0.05434682 0.12893726 0.15687342 0.22381145
0.23448052 0.13342366 0.36839053 0.22367372 0.59177935 -0.48947892 -0.043950714 0.2059857
-0.67725706 0.0722489 0.24761686 -0.093693465 0.45732108 0.27289844 0.09703361 -0.06969445
0.3963821 0.42848575 -1.3404218 -0.17089358 -0.2474753 0.05944069 0.15794821 -1.6340531
-0.25592342 0.19593734 -0.5145615 -0.21750821 -0.19538368 0.0938398 0.13389365 0.19170049
-0.63277316 0.40766075 0.083880424 -1.6330978 -0.17686158 -0.31275302 0.22902183 0.03944948
-0.43585452 0.25105327 0.17948803 0.2758698 0.6592864 -1.2090887 0.02509362 -0.10645911
00000000: 879a 24be 3129 5c3e f17b 763e 500c be3e
00000010: 7c4d 7c3d f64d 703e 2b1a 7f3e b775 87be
00000020: 1490 96bf e411 8d3e 5ffd 38be f09c 1b3e
00000030: fe7b ecbe 4603 973d ddd7 0cbe aced 443e
00000040: f75a 383e 3bfd 973e e776 1abd 0561 a23e
00000050: fe77 af3b 95b4 3ebd f705 be3d 5ac2 09be
00000060: 1b75 14bd 2ace 833e 4891 3c3e 83e2 d9bf
00000070: 806c d73d f90e dabc 9790 09be dd63 653d
00000080: 6ad0 e0bd 586f 873e b5ce 7d3e 3258 bb3e
00000090: c4c0 f93e b8c1 3bbe 176c e43c 6907 723e
000000a0: 36cb 7bbf 203d b83d d189 063e 2d8a a93e
000000b0: e5a4 553e 9916 643d 9a36 803d a0cc 3f3e
000000c0: be9b f5bc 02be b93e 3da4 533e 3349 c9be
000000d0: 7836 a23e 682d 4e3e 7e00 d83d 3b0f 52be
000000e0: d804 123d f047 46bd b2a9 843e af70 69bd
000000f0: 5b64 a9be 39dd dabd 1a92 ce3e 5a47 833e
00000100: 382e 46be aace 57be 2a62 47be 0008 9eba
00000110: c482 82bd 9ff4 32be 6f59 ddbd 1877 413d
00000120: f4c1 05be 790e 183d 9731 72bd 9542 05be
00000130: c8ae 0c3d 847f 523e 8fc7 3ebe e835 b2bb
00000140: 065d ce3c 75a6 cc3e 2a11 7dbe c8e7 06bf
00000150: 9906 6c3e 83e9 18be e126 143d 3572 05bd
00000160: 65b4 c9bd 0c6a f23b 2340 853c e7fe 91be
00000170: 280f f8be feda dfbd 40ce c1bd 1702 c43c
00000180: cce7 2cbe 3048 c03e 5d11 e33c 2285 58be
00000190: 162f 873e b387 60be d4c6 fe3d 2757 4b3e
000001a0: 8389 40bf 3b6d acbe f239 b63d b70b ad3e
000001b0: 295c 6a3d be98 eabd 1692 443e 6882 a63e
000001c0: 612f 4f3e a111 0d3d 7951 7ebf 6df6 363e
000001d0: 5130 d4be 4c88 2f3e 370e b53d af7c 72bf
000001e0: b820 903e 68fc a03e 56c9 7cbe a0ad cabe
000001f0: 97ff 86be 13cc ce3e 960f 1a3e 21f8 953d
00000200: e423 36bc 23e8 c43e faa4 1d3d 10b7 963e
00000210: b98d 17bf 2ee8 423d e137 c8be 97af efbc
00000220: 04ff dbbd df76 a4be bb32 2b3e 7257 2bbe
00000230: 4ca1 9abd f808 d83d d223 6dbf 3f2b 88be
00000240: 330b 593e 5e91 d33d 7953 043e 44fb 83be
00000250: 24bc a13e 06e7 483e 9d7d 9a3e 31c4 adbc
00000260: ab7e a53e 3273 b53e 5a76 183d 3563 97be
00000270: e7d0 f2be 8a2b 7abe 046a d63e f7ff 4cbc
00000280: 8032 cdbe a7e6 873e 5ca7 bf3e 1d67 973e
00000290: 7541 c0be b14c ac3e c349 db3e 5040 0a3e
000002a0: ca49 9cbf 9c5f 42bd d629 4cbf 613d 353e
000002b0: c233 e0bf b20a 4b3e 14c0 893e 737b 4d3e
000002c0: 94bd 80bd 502f 8d3e 86bd 24be dd7b ae3e
000002d0: 1b93 9cbe c2e7 a13d 81d5 8e3e 0a81 f5bc
000002e0: 940f 973f 5c8d 0abd 1695 0abe 743d 32be
000002f0: b80f b53e 9564 a23e 8ef4 8dbe d3aa 4e3e
00000300: 434e cc3c 5e7f ba3d 7033 803e 1f80 89be
00000310: 64c5 453e d29a c3be 9e28 33be c0a4 753e
00000320: 8fa2 35bf f387 783d 68c9 6abe bfec 893d
00000330: c59a 5ebd 2108 043e 6da3 203e d42e 653e
00000340: a91b 703e 36a0 083e af9d bc3e b90a 653e
00000350: da7e 173f fb9c fabe aa05 34bd eaed 523e
00000360: b860 2dbf 3bf7 933d 468f 7d3e 5ce2 bfbd
00000370: fd25 ea3e 58b9 8b3e 8fb9 c63d f7bb 8ebd
00000380: 98f2 ca3e 7c62 db3e f192 abbf bafe 2ebe
00000390: 2a6a 7dbe 1578 733d 2dbd 213e a728 d1bf
000003a0: 6508 83be cca3 483e 4dba 03bf 79ba 5ebe
000003b0: a912 48be 152f c03d 6b1b 093e 224d 443e
000003c0: 6cfd 21bf e9b8 d03e 80c9 ab3d 5909 d1bf
000003d0: 341b 35be 2a21 a0be b384 6a3e c795 213d
000003e0: 5328 dfbe 0e8a 803e b6cb 373e ce3e 8d3e
000003f0: fec6 283f 6bc3 9abf 2391 cd3c 3c07 dabd

decoder.net.2.bias f4 [16]
0.11997051 0.27489153 0.27499238 0.19947864 0.134748 -0.06747999 -0.00025980317 0.4996959
0.18029204 0.49363083 0.009612224 0.2685116 0.123379044 0.031212503 0.38701007 -0.08804432
00000000: 19b3 f53d 95be 8c3e cdcb 8c3e 2144 4c3e
00000010: 61fb 093e f332 8abd 3136 88b9 24d8 ff3e
00000020: 7a9e 383e 2ebd fc3e 977c 1d3c 5a7a 893e
00000030: 27ae fc3d 5db1 ff3c 2f26 c63e 9550 b4bd

decoder.net.4.weight f4 [2, 16]
-0.48388377 0.08416109 0.35195026 -0.20976295 0.10990641 0.14303042 0.16649118 -0.49135324
-0.12077355 -0.38935253 -0.81868416 -0.07585101 0.10403733 0.56668186 -0.28692746 -0.07578361
-0.28246078 0.34291336 -0.15307204 -0.36194983 0.02212317 0.5045818 -0.36059496 0.3656275
0.26697817 -0.2939975 -0.14542368 0.39122584 -0.32525623 0.048483457 0.35148424 -0.70099527
00000000: 9dbf f7be a65c ac3d d332 b43e 19cc 56be
00000010: 9d16 e13d 9176 123e aa7c 2a3e a792 fbbe
00000020: 1f58 f7bd 3759 c7be 4995 51bf c657 9bbd
00000030: 8611 d53d 1012 113f 28e8 92be 7034 9bbd
00000040: b39e 90be 5792 af3e ebbe 1cbe 7d51 b9be
00000050: a63b b53c 462c 013f e79f b8be 8733 bb3e
00000060: 5db1 883e d786 96be f2e9 14be c14e c83e
00000070: fc87 a6be 9796 463d bef5 b33e 6d74 33bf

decoder.net.4.bias f4 [2]
0.084966235 0.26285303
00000000: c702 ae3d ac94 863e

prior.t.0.0.weight f4 [16, 1]
0.6146852 -0.60668343 0.820456 -0.59983134 0.86148566 -0.9862749 -0.8496617 0.5390118
0.18333203 0.1689939 -0.43255603 -0.42394984 -0.31548014 -0.9933722 0.08471717 0.18515518
00000000: 025c 1d3f 9b4f 1bbf 6809 523f 8c8e 19bf
00000010: 538a 5c3f 837c 7cbf 6e83 59bf adfc 093f
00000020: 64bb 3b3e bd0c 2d3e fc77 ddbe f40f d9be
00000030: 9d86 a1be a44d 7ebf 3280 ad3d 5299 3d3e

prior.t.0.0.bias f4 [16]
-0.2525053 0.392811 0.8096873 -0.089927234 -0.4544477 -0.33088136 -0.7656617 -1.1850075
-0.22044562 -0.18526971 0.8817784 -0.5150693 1.0248878 -1.0350741 0.09271619 1.1759545
00000000: 6048 81be 861e c93e ab47 4f3f c52b b8bd
00000010: 5ead e8be 4869 a9be 6802 44bf 53ae 97bf
00000020: 7fbc 61be 58b7 3dbe 3bbc 613f 95db 03bf
00000030: 862f 833f 4f7d 84bf fce1 bd3d ad85 963f

prior.t.0.2.weight f4 [16, 16]
0.3312423 -0.16325298 0.06698752 0.013473478 -0.0073874863 -0.07658873 0.08418083 -0.054855675
0.17211324 0.23116782 -0.2702574 0.22319646 0.019492064 0.12725994 0.32539305 -0.12294824
-0.030300599 0.023108393 0.07870918 0.062372006 -0.27073348 0.028223325 0.22576994 -0.25979304
-0.32441574 -0.60674596 0.14787117 0.08802515 -0.061666064 0.28447148 0.07446049 -0.015743788
-0.5387766 0.059792537 -0.30886295 0.1421559 -0.25123316 0.023967506 0.0018917092 -0.0693724
0.15249951 0.20751086 0.045296334 -0.072517365 0.09040515 0.041274905 -0.41360795 0.40284467
0.121864565 -0.390889 0.09077193 -0.30194902 0.14639777 -0.44580328 0.0037319541 0.1913203
-0.13806283 -0.2622039 0.585644 -0.20125453 0.08786339 -0.1999291 0.030645909 0.23690015
0.03643827 -0.05729622 -0.3045912 -0.006757593 0.034430765 -0.0095871035 0.11639664 0.3228138
0.041874196 0.20437494 -0.118244484 -0.32249287 -0.13082287 0.15243603 0.101201445 0.17718734
0.15560053 -0.19829312 0.10826756 0.24418809 -0.1561126 0.2707183 0.15718353 0.13174166
-0.30904078 -0.12666214 -0.19303505 0.09032844 0.027675921 0.18767603 0.27438006 0.25224647
0.28129932 0.17805888 0.15691428 -0.03771235 -0.10819531 -0.14288464 -0.1214885 -0.014359883
0.23657914 0.18869841 0.022300687 -0.0506546 0.289639 -0.028871924 -0.201666 -0.14904404
0.14625746 0.047268488 0.08210796 -0.25123322 -0.15844843 0.10387909 0.06294567 -0.113711886
0.16339684 -0.18636842 0.17218848 -0.03713447 0.3294577 -0.37011603 -0.24667941 0.21230645
0.21956506 0.1151674 0.14211665 -0.24518569 0.1953214 -0.26228178 0.02734516 -0.12671173
0.007453078 0.2200256 -0.9114319 -0.068459444 0.18112415 -0.2706583 0.08330535 -0.15826328
-0.14534487 0.055269018 -0.10490847 -0.08861588 0.14427425 0.109459214 -0.20155147 -1.191704
-0.09940011 -0.1531797 -0.118258364 -0.25234574 0.61103004 -0.6158412 -0.17615049 0.39488533
0.2130373 -0.120129794 0.092835374 0.21528926 0.089554474 0.12880063 0.3484054 0.14442132
-0.27994448 -0.14478691 0.1343032 0.32955885 -0.4248753 0.25208405 -0.040743798 -0.2993836
0.047206253 -0.16449639 0.05400667 -0.15967984 -0.22454566 0.0027319058 -0.020028748 0.14220525
-0.03792664 0.12820685 0.04317847 0.006091644 0.101734124 0.09514232 0.042285245 -0.07740067
0.017045632 -0.2202595 0.06622848 -0.36690837 -0.019038226 -0.39546278 -0.18046902 0.08590818
-0.36832887 -0.41589332 0.2629207 -0.15590884 0.10944555 -0.05139526 0.19566368 0.0016732325
-0.0348489 0.121667825 0.21281514 -0.052309103 -0.15450661 0.011507914 0.0500369 -0.7907595
-0.15086842 0.10172031 -0.57107544 -0.34504065 -0.020210365 -5.1627914e-05 -0.05204062 0.19769649
0.18000351 0.03041883 -0.016524773 -0.066305146 -0.035888836 0.10918584 -0.09295594 -0.10650698
-0.40256307 -0.095369056 -0.18798871 0.33853295 -0.10537201 -0.02813476 0.12303929 0.053930305
0.31150603 0.108352385 -0.15748866 0.14899519 0.08088109 -0.16735636 0.060293503 0.3041658
-0.10007996 0.10558675 0.18436453 -0.018140268 0.28213224 -0.20841224 -0.005660384 0.3082546
00000000: 9798 a93e ca2b 27be c130 893d ddbf 5c3c
00000010: ba12 f2bb 8dda 9cbd 0067 ac3d 58b0 60bd
00000020: 743e 303e 42b7 6c3e 2e5f 8abe 9d8d 643e
00000030: d2ad 9f3c 6e50 023e eb99 a63e 49cc fbbd
00000040: f638 f8bc d04d bd3c 4732 a13d ca79 7f3d
00000050: 949d 8abe 9a34 e73c 3c30 673e 9803 85be
00000060: d219 a6be b453 1bbf 8a6b 173e 8846 b43d
00000070: 8e95 7cbd 3fa6 913e be7e 983d 1ef9 80bc
00000080: 43ed 09bf 05e9 743d 4923 9ebe 5191 113e
00000090: a2a1 80be 8157 c43c 3af3 f73a 1e13 8ebd
000000a0: d528 1c3e ba7d 543e a688 393d fc83 94bd
000000b0: 5626 b93d e00f 293d 6cc4 d3be a841 ce3e
000000c0: 2194 f93d 9a22 c8be a2e6 b93d 1099 9abe
000000d0: 4ce9 153e 5440 e4be cd93 743b 78e9 433e
000000e0: 5860 0dbe 973f 86be c4ec 153f ab15 4ebe
000000f0: b9f1 b33d 37ba 4cbe 210d fb3c f495 723e
00000100: 4c40 153d 71af 6abd 61f3 9bbe cc6e ddbb
00000110: 4607 0d3d 3a13 1dbc 5d61 ee3d da47 a53e
00000120: 4784 2b3d aa47 513e 2a2a f2bd c91d a5be
00000130: 6ef6 05be 3118 1c3e b442 cf3d 9970 353e
00000140: bf55 1f3e 5a0d 4bbe 62bb dd3d 710c 7a3e
00000150: fbdb 1fbe 979b 8a3e b8f4 203e 49e7 063e
00000160: 983a 9ebe b8b3 01be fbaa 45be 1efe b83d
00000170: 9db8 e23c 252e 403e 8b7b 8c3e 7326 813e
00000180: 7706 903e 1155 363e 23ae 203e 4478 1abd
00000190: 8195 ddbd 5a50 12be f6ce f8bd b745 6bbc
000001a0: cd41 723e 283a 413e eeaf b63c 337b 4fbd
000001b0: 904b 943e d084 ecbc 8881 4ebe 009f 18be
000001c0: 84c4 153e 9a9c 413d 3828 a83d a4a1 80be
000001d0: 4e40 22be 8fbe d43d a9e9 803d c7e1 e8bd
000001e0: 8051 273e 5dd7 3ebe 2d52 303e 501a 18bd
000001f0: aeae a83e d97f bdbe 8799 7cbe dd66 593e
00000200: aad5 603e e3dc eb3d 0787 113e f511 7bbe
00000210: 5502 483e cc49 86be f502 e03c b8c0 01be
00000220: f338 f43b 644e 613e 9a53 69bf 7734 8cbd
00000230: 9c78 393e ba93 8abe ff9b aa3d c50f 22be
00000240: 49d5 14be c461 623d 40da d6bd 3e7c b5bd
00000250: a1bc 133e 272c e03d 8263 4ebe c289 98bf
00000260: 4992 cbbd 24db 1cbe 7131 f2bd 7633 81be
00000270: 776c 1c3f c5a7 1dbf cb60 34be 692e ca3e
00000280: 7326 5a3e 9c06 f6bd 7920 be3d ca74 5c3e
00000290: 5668 b73d 50e4 033e 3162 b23e 2fe3 133e
000002a0: e254 8fbe 0543 14be c786 093e f0bb a83e
000002b0: 4189 d9be 2911 813e f8e2 26bd cf48 99be
000002c0: 585b 413d be71 28be 1936 5d3d 1d83 23be
000002d0: 4cef 65be c609 333b 5413 a4bc 419e 113e
000002e0: f758 1bbd a848 033e e8db 303d 6a9c c73b
000002f0: fb59 d03d fad9 c23d 4b33 2d3d 3e84 9ebd
00000300: 48a3 8b3c b58b 61be cca2 873d 6adb bbbe
00000310: 0ef6 9bbc 197a cabe dfcc 38be a1f0 af3d
00000320: 9a95 bcbe f8ef d4be 8b9d 863e 91a6 1fbe
00000330: fd24 e03d d683 52bd 0f5c 483e 5e50 db3a
00000340: b8bd 0ebd fb2c f93d 36ec 593e 1242 56bd
00000350: fb36 1ebe b18b 3c3c 7ef3 4c3d 376f 4abf
00000360: 407d 1abe bd52 d03d 0032 12bf 2ba9 b0be
00000370: 3590 a5bc 0d8b 58b8 8c28 55bd f370 4a3e
00000380: d752 383e e930 f93c f65e 87bc feca 87bd
00000390: 2c00 13bd d39c df3d af5f bebd 5520 dabd
000003a0: bf1c cebe da50 c3bd 1d80 40be 3154 ad3e
000003b0: 48cd d7bd de7a e6bc 06fc fb3d 06e6 5c3d
000003c0: b87d 9f3e dbe7 dd3d b544 21be 3292 183e
000003d0: fca4 a53d 775f 2bbe 52f6 763d 9fbb 9b3e
000003e0: b9f6 ccbd de3d d83d 0eca 3c3e e69a 94bc
000003f0: a373 903e 056a 55be be7a b9bb 8cd3 9d3e

prior.t.0.2.bias f4 [16]
-0.040281463 0.38057956 0.11010543 0.09044615 -0.01510754 -0.20433667 0.094994545 0.20161408
-0.0050317906 0.352997 0.09421589 -0.14969787 0.48110083 -0.21423206 -0.2002961 -0.029100673
00000000: 2dfe 24bd 53db c23e f57e e13d d53b b93d
00000010: 9e85 77bc a23d 51be 808c c23d ec73 4e3e
00000020: b8e1 a4bb 06bc b43e 43f4 c03d 664a 19be
00000030: d952 f63e a65f 5bbe 6c1a 4dbe 8964 eebc

prior.t.0.4.weight f4 [1, 16]
0.15770878 -0.14271145 0.100673944 -0.23515028 0.026722444 -0.100453466 0.06802808 0.14923641
0.140224 0.62591654 -0.1401895 -0.018437987 -0.24967028 0.49899286 -0.093217336 0.20044525
00000000: 697e 213e f322 12be 242e ce3d 3ccb 70be
00000010: 07e9 da3c 8cba cdbd 4e52 8b3d 6ed1 183e
00000020: e196 0f3e 113c 203f d68d 0fbe 430b 97bc
00000030: 91a9 7fbe fe7b ff3e bbe8 bebd 8541 4d3e

prior.t.1.0.weight f4 [16, 1]
-0.06255662 0.28002432 -0.89874303 0.07505707 -0.013720954 0.008776922 -0.5606273 0.66231245
0.669654 -0.6897003 0.5681994 -0.7618018 -0.8607777 0.4820992 0.42946345 -0.5440481
00000000: af1d 80bd 595f 8f3e 0614 66bf 85b7 993d
00000010: dacd 60bc 14cd 0f3c 4585 0fbf 4f8d 293f
00000020: 726e 2b3f 3390 30bf 8475 113f 7105 43bf
00000030: ed5b 5cbf b5d5 f63e a2e2 db3e bc46 0bbf

prior.t.1.0.bias f4 [16]
-0.95340747 -0.4087074 0.3242937 -1.0725529 -1.0049756 0.2665347 -0.61408603 -1.0551529
-0.6042608 0.08349506 -0.89447844 -0.7523494 0.52931994 -0.84369975 0.15533647 -0.77833647
00000000: 8312 74bf 1942 d1be d309 a63e 6a49 89bf
00000010: 0aa3 80bf 3c77 883e be34 1dbf 400f 87bf
00000020: d6b0 1abf 75ff aa3d 8afc 64bf f899 40bf
00000030: 8381 073f b5fc 57bf 8610 1f3e 0f41 47bf

prior.t.1.2.weight f4 [16, 16]
0.034087494 0.11064321 -0.17834172 0.10167122 0.3909981 -0.27165025 0.26083666 -0.0053699296
-0.052775692 0.028833486 0.04839457 0.33809245 -0.22282349 0.036586665 0.102671646 0.0344039
-0.31873217 -0.082126275 -0.2164344 -0.13493386 -0.38711348 0.41967863 -0.32943565 -0.011084601
-0.06300537 -1.0155181 -0.34637123 0.14781319 -0.22029977 -0.66493726 0.45119873 -0.11655369
-0.047728546 -0.41313875 0.026281081 -0.25742617 0.0732258 0.1710494 -1.3000107 -0.054951545
0.31975082 -0.028523939 -0.4790415 -0.24097142 0.29919672 -0.7188331 0.047001336 -0.86257225
0.17057106 0.13435648 -0.03901808 0.19174168 0.03208963 -0.20900466 0.034178372 0.28321218
-0.17591596 -0.19397798 -0.10526559 -0.026797585 0.15045345 0.3375202 -0.26416364 0.07042311
-0.2964808 0.06673103 0.20414707 -0.33463976 -0.5404594 0.66939914 0.043833654 0.04661022
-0.4157766 0.08733013 0.08662238 0.1741118 -0.23197174 -0.29995102 -0.13014702 -0.19093516
0.07512825 0.22170669 -0.5035126 -0.38817132 -0.36693132 0.328788 -0.25839686 -0.06819068
-0.18191795 0.06380889 0.3694252 -0.24702427 -0.37000254 0.4425606 0.14800341 -0.15015927
-0.06917019 -0.39595714 0.23021743 -0.3168585 -0.0063104555 0.2607787 -0.54185116 -0.08182867
0.08073314 -0.02194812 -0.5243308 0.15162508 -0.11170258 -0.5483271 0.02336012 0.059549283
-0.4436956 -0.2362818 0.12601574 -0.0828999 -0.41894132 0.1402303 -0.089668065 -0.22886007
-0.25940928 0.19849846 -0.10642546 0.095252916 0.2472323 0.046091735 -1.462712 0.10750418
-0.09771684 -0.19897978 -0.11059212 -0.042225614 0.012467693 -0.09570976 -1.13837 -0.031199932
-0.009795816 0.15481643 -0.41350448 -0.15425232 0.36422613 -0.5197609 0.24318647 -0.8940723
0.26782942 -0.6097565 0.06620671 -0.056639213 -0.04499617 0.29025468 -0.9923036 -0.10447191
0.3556094 -0.058110826 -0.51667863 -0.18392119 0.24492028 -0.62086374 -0.23436208 -1.0362568
-0.006838219 -0.2693672 -0.18487483 -0.0314536 -0.036633715 0.15297481 -0.19992928 -0.18908694
0.170049 -0.78781265 -0.47482204 0.040727187 -0.23160781 -0.61788744 0.3000415 -0.023610566
0.19044863 0.2464817 0.07822219 -0.12586269 -0.18122907 -0.05792694 0.24707475 0.18971339
-0.14501725 -0.063072495 -0.18811703 -0.0013525935 0.120376095 -0.21379657 -1.0103139 0.1385766
0.24577281 -0.015817543 0.050129827 0.24343741 0.061450038 -0.5183448 0.12228002 0.010726502
-0.033620287 -0.02750217 -0.12746799 0.029196817 -0.19983426 0.2124903 0.10876028 -0.0207929
-0.1661997 0.39488262 -0.46942812 -0.08902369 -0.048484284 -0.04137386 0.056093544 0.05707305
0.1657488 -0.068878494 0.09528268 0.2104715 -0.65068495 0.24812083 0.3594808 -0.1314278
-0.10465152 0.3422915 0.2512801 -0.37916905 -0.1291547 0.22411273 -0.01093163 0.16887473
0.07698408 0.14000234 0.38260567 -0.19064617 0.14821824 0.24445187 0.24231714 0.119888574
-0.19638568 -0.17431419 0.21738335 -0.23531984 0.073700994 0.01685321 0.20854498 -0.08997352
-0.07845515 0.01507673 0.02095481 -0.07277811 0.07421655 0.21885797 -1.4154503 -0.026739938
00000000: 549f 0b3d e898 e23d 369f 36be 0039 d03d
00000010: e730 c83e be15 8bbe 628c 853e 3cf6 afbb
00000020: 532b 58bd 3434 ec3c 6239 463d 741a ad3e
00000030: d72b 64be e6db 153d 8345 d23d 1beb 0c3d
00000040: dd30 a3be d231 a8bd fba0 5dbe 1a2c 0abe
00000050: bd33 c6be 1ee0 d63e caab a8be 309c 35bc
00000060: f608 81bd 7ffc 81bf 9257 b1be 575c 173e
00000070: 4396 61be 5439 2abf 8503 e73e b3b3 eebd
00000080: 027f 43bd ec86 d3be 6c4b d73c 5dcd 83be
00000090: 69f7 953d 9327 2f3e c066 a6bf df14 61bd
000000a0: 61b6 a33e 09ab e9bc ed44 f5be 36c1 76be
000000b0: 5030 993e 7205 38bf 7984 403d 89d1 5cbf
000000c0: 2eaa 2e3e bf94 093e 6cd1 1fbd ee57 443e
000000d0: 6a70 033d 5105 56be 9ffe 0b3d 3001 913e
000000e0: 5023 34be 2aa2 46be 7c95 d7bd 9c86 dbbc
000000f0: 7810 1a3e 73cf ac3e 7540 87be fe39 903d
00000100: 55cc 97be 47aa 883d ee0b 513e e755 abbe
00000110: 8c5b 0abf be5d 2b3f eb8a 333d 5cea 3e3d
00000120: ace0 d4be 24da b23d 1367 b13d 5d4a 323e
00000130: 008a 6dbe 2e93 99be 4345 05be 8284 43be
00000140: d7dc 993d 1407 633e 34e6 00bf 64be c6be
00000150: 6cde bbbe e756 a83e 984c 84be 8ea7 8bbd
00000160: b348 3abe 3cae 823d 4d25 bd3e eef3 7cbe
00000170: f970 bdbe 4e97 e23e 358e 173e 5ac3 19be
00000180: 1aa9 8dbd e5ba cabe 1ebe 6b3e 473b a2be
00000190: f0c7 cebb c984 853e c2b6 0abf ca95 a7bd
000001a0: 6b57 a53d 8bcc b3bc 8b3a 06bf 9b43 1b3e
000001b0: 52c4 e4bd 2a5f 0cbf b95d bf3c f3e9 733d
000001c0: 122c e3be dbf3 71be 450a 013e 6cc7 a9bd
000001d0: 7a7f d6be 8898 0f3e e4a3 b7bd 4b5a 6abe
000001e0: 4bd1 84be 2e43 4b3e 97f5 d9bd f613 c33d
000001f0: 772a 7d3e b0ca 3c3d 263a bbbf 272b dc3d
00000200: c41f c8bd 5bc1 4bbe 1f7e e2bd c4f4 2cbd
00000210: 4b45 4c3c 7b03 c4bd 1cb6 91bf 0097 ffbc
00000220: a17e 20bc 3388 1e3e dcb6 d3be 52f4 1dbe
00000230: d97b ba3e 0d0f 05bf e005 793e ece1 64bf
00000240: f020 893e 0119 1cbf 6297 873d 85fe 67bd
00000250: e74d 38bd 439c 943e 9c07 7ebf 5ef5 d5bd
00000260: 6f12 b63e 9e05 6ebd 0d45 04bf d655 3cbe
00000270: 62cc 7a3e edf0 1ebf 9dfc 6fbe 10a4 84bf
00000280: 2313 e0bb 7fea 89be d44f 3dbe 7dd5 00bd
00000290: 3c0d 16bd 6ea5 1c3e 43ba 4cbe 02a0 41be
000002a0: 5321 2e3e 17ae 49bf e01b f3be 8dd1 263d
000002b0: 992a 6dbe df2d 1ebf 0a9f 993e f26a c1bc
000002c0: f704 433e b365 7c3e f532 a03d 26e2 00be
000002d0: 1d94 39be cd44 6dbd 2a01 7d3e 3a44 423e
000002e0: 677f 14be 272c 81bd c0a1 40be 8249 b1ba
000002f0: be87 f63d 7ded 5abe f751 81bf 06e7 0d3e
00000300: deab 7b3e cb93 81bc ef54 4d3d a847 793e
00000310: 09b3 7b3d 3fb2 04bf f26d fa3d 36be 2f3c
00000320: 6db5 09bd 3b4c e1bc f886 02be 2a2e ef3c
00000330: 5aa1 4cbe 0f97 593e b6bd de3d df55 aabc
00000340: 4130 2abe 0e2e ca3e e258 f0be 0d52 b6bd
00000350: 7597 46bd a377 29bd 58c2 653d 6ec5 693d
00000360: 0eba 293e 2b10 8dbd 9123 c33d d785 573e
00000370: 4a93 26bf 6313 7e3e de0d b83e 0295 06be
00000380: 8953 d6bd d540 af3e c9a7 803e 7222 c2be
00000390: 2141 04be cf7d 653e 941a 33bc 7fed 2c3e
000003a0: d4a9 9d3d c65c 0f3e e4e4 c33e c038 43be
000003b0: 86c6 173e 9751 7a3e fc21 783e 2488 f53d
000003c0: 5419 49be 6b7f 32be be99 5e3e aff7 70be
000003d0: 8cf0 963d be0f 8a3c d18c 553e 0944 b8bd
000003e0: 18ad a0bd 6404 773c 6ca9 ab3c b10c 95bd
000003f0: d9fe 973d 4e1c 603e 7a2d b5bf b70d dbbc

prior.t.1.2.bias f4 [16]
-0.39546472 0.43876454 0.34716985 -0.1992597 0.3445369 0.028074704 0.30163413 0.22294499
0.42591292 0.14446123 0.44531587 0.2667929 -0.40101245 0.15413463 0.24029222 0.28146923
00000000: 5a7a cabe bfa5 e03e 3fc0 b13e bc0a 4cbe
00000010: 2467 b03e ecfc e53c ca6f 9a3e b14b 643e
00000020: 4211 da3e a5ed 133e 7100 e43e 1499 883e
00000030: 8151 cdbe 78d5 1d3e 2a0f 763e bc1c 903e

prior.t.1.4.weight f4 [1, 16]
-0.043593254 -0.3696815 -0.8984862 -0.271935 0.14407395 0.17059717 0.03801984 0.1853141
-0.71007496 -0.66230077 -0.6396526 0.02466421 -0.07186643 0.19960944 0.24469869 0.21593201
00000000: d78e 32bd e546 bdbe 3103 66bf 103b 8bbe
00000010: 1f88 133e 06b1 2e3e b1ba 1b3d fbc2 3d3e
00000020: 79c7 35bf 8b8c 29bf 46c0 23bf 990c ca3c
00000030: b52e 93bd 6b66 4c3e 4b92 7a3e 481d 5d3e

prior.t.2.0.weight f4 [16, 1]
0.77197945 -1.1846173 -0.745869 0.43199545 -0.053423684 -0.81066924 -0.4658459 -0.58583575
-0.97463304 0.5492313 1.0516993 0.36735904 -0.83843964 -1.2835634 -0.8729506 -0.12069425
00000000: 72a0 453f 8aa1 97bf 45f1 3ebf 822e dd3e
00000010: cbd2 5abd 0588 4fbf 5b83 eebe 55f9 15bf
00000020: 8d81 79bf 6c9a 0c3f 159e 863f 7c16 bc3e
00000030: fba3 56bf ce4b a4bf b179 5fbf 8c2e f7bd

prior.t.2.0.bias f4 [16]
1.0805799 0.03699516 -0.6060482 -0.5659936 -0.42089823 -1.2174463 -0.9461638 1.2593932
-0.7898037 -0.30161554 -0.48636574 -1.2015162 0.2711418 0.21261731 -0.6661305 -0.13746019
00000000: 7150 8a3f 3d88 173d fa25 1bbf f5e4 10bf
00000010: f97f d7be 48d5 9bbf ca37 72bf cc33 a13f
00000020: 9330 4abf 5a6d 9abe ee04 f9be 48cb 99bf
00000030: 19d3 8a3e 5ab8 593e 8787 2abf 5dc2 0cbe

prior.t.2.2.weight f4 [16, 16]
-0.17578097 -0.25586528 0.35582972 0.9688073 0.45647436 -0.21223159 0.367047 -0.33528826
0.08213743 -0.098364174 -0.15027505 1.1392831 -0.215182 -0.15188774 0.04828827 -0.14192766
-0.13694838 -0.30091822 0.16093777 -0.379084 0.2553693 -0.31576598 0.028714363 -0.031615656
0.262531 -0.08798008 -0.31816736 -0.56788236 -0.33522496 -0.21420334 0.21753378 -0.0012840625
0.5644136 0.026497087 -1.1012647 -0.904952 -0.13200921 -0.02667033 -0.18752265 0.13885063
-0.7036835 0.5516957 0.61621183 -0.5577236 0.27773827 -0.020522004 -0.88483006 -0.62311345
-1.7429886 -0.03547698 0.36748943 -0.1183204 0.04941222 -0.5937704 0.10105711 0.055403184
0.0460846 -0.27517667 -0.3285452 0.012125592 0.13170108 0.3599627 0.2077077 0.0014437856
-0.106831245 -0.2274392 -0.030075833 -0.22788803 0.09574811 0.21257214 0.0051312083 -0.16478477
0.20951104 0.28117356 0.07230265 -0.073205665 0.15982409 0.21196836 -0.1963217 0.0134496065
-0.1983637 -0.15168431 0.2791644 0.5465771 0.41585398 -0.1063446 0.114062265 -0.28323886
-0.033347905 -0.025153829 -0.04922823 0.3362586 0.12861194 -0.27367282 0.13635322 0.26499707
0.2581921 -0.25087568 -0.10293575 0.039524984 -0.5552605 -0.29031748 -0.4445417 0.36309826
0.17245567 -0.33475822 -0.41058236 -0.24480821 -0.6748709 -0.5383688 -0.27610445 -0.35426077
0.38557255 0.040955607 -0.43391976 -0.74036556 -0.09129034 -0.22615215 -0.8072603 0.06506762
-0.31338927 0.7424989 0.27380255 -0.77787894 0.36234972 0.15797776 -0.1948618 -0.10129643
-0.8026774 -0.10688862 0.07975958 0.116531946 -0.07633979 -0.41169953 -0.2139822 0.11602706
0.13372986 -0.107269965 -0.3243047 0.11297183 0.21726997 -0.021981759 0.1584412 0.106657855
0.16454934 -0.040285535 0.07233664 -0.6677868 -0.35717636 -0.037133284 -0.021834284 -0.4428747
-0.2900683 0.76478726 0.62481093 -0.6392973 0.06407409 0.008190635 -0.0861959 -0.13133278
0.18364623 -0.6582303 0.020396503 -0.08516286 -0.48788938 -0.4272324 -0.5957176 0.42250392
0.07589603 -0.59186053 -0.6825798 -0.36576346 -0.59774053 -0.6895262 -0.2614843 0.121130586
-0.611088 0.20202401 0.2988336 0.2836033 0.41081506 -0.15007441 0.023126021 -0.16595359
0.28166097 -0.011004151 -0.24751942 -0.039590657 0.1597954 0.18388729 0.2840967 0.09005587
0.32585678 -1.0023901 -0.11395443 0.35647106 -0.083737634 -0.23441598 -0.32164517 0.3594184
-0.09126102 -0.72169566 -0.38301605 0.4875284 -0.93306524 -0.65485466 0.10287752 0.24710424
-0.7817487 -0.057301447 0.2393768 0.19311732 -0.03282522 -0.4909668 0.11927565 0.051246118
0.019456623 0.08970661 -0.2703053 0.36893645 0.1984437 0.03210266 0.19890936 0.12216613
-0.44519678 -0.021498032 0.20980439 0.3814139 0.36624843 -0.46224555 -0.21161298 -0.20035878
-0.11391703 -0.26630446 -0.50604594 0.30092227 -0.118324 -0.27350038 -0.03010023 0.18910597
-1.9157966 0.19118476 0.25324014 -0.08318303 -0.073787935 -0.5954539 0.11860641 0.333252
0.1110348 0.07012414 -0.36041626 -0.09964605 0.14202604 -0.13974425 0.17998601 -0.074391216
00000000: edff 33be c600 83be 502f b63e c103 783f
00000010: 02b7 e93e 3d53 59be 96ed bb3e e7aa abbe
00000020: ab37 a83d 2873 c9bd b4e1 19be 07d4 913f
00000030: ac58 5cbe 7688 1bbe ecc9 453d 7c55 11be
00000040: 323c 0cbe f411 9abe dfcc 243e 4c17 c2be
00000050: c4bf 823e 14ac a1be 623a eb3c 6b7f 01bd
00000060: 776a 863e e62e b4bd d5e6 a2be bd60 11bf
00000070: 9ba2 abbe 1f58 5bbe 2dc1 5e3e fd4d a8ba
00000080: 697d 103f 6b10 d93c 3ef6 8cbf efaa 67bf
00000090: 6c2d 07be bc7b dabc f005 40be dc2e 0e3e
000000a0: 9a24 34bf ee3b 0d3f 0fc0 1d3f f9c6 0ebf
000000b0: b633 8e3e c31d a8bc 3984 62bf 5d84 1fbf
000000c0: 401a dfbf 4f50 11bd 9327 bc3e f751 f2bd
000000d0: 7864 4a3d 5601 18bf 08f7 ce3d 73ee 623d
000000e0: 35c3 3c3d f5e3 8cbe 1437 a8be 6baa 463c
000000f0: a6dc 063e 084d b83e 54b1 543e 683d bd3a
00000100: 57ca dabd d2e5 68be 9861 f6bc 7b5b 69be
00000110: 9617 c43d 83ac 593e b223 a83b 57bd 28be
00000120: 108a 563e fbf5 8f3e 6913 943d daec 95bd
00000130: eda8 233e 3c0e 593e 8e08 49be bd5b 5c3c
00000140: db1f 4bbe 2253 1bbe a3ee 8e3e 7aec 0b3f
00000150: d0ea d43e 33cb d9bd 7a99 e93d af04 91be
00000160: d097 08bd 670f cebc 8aa3 49bd 162a ac3e
00000170: d9b2 033e d81e 8cbe 2ea0 0b3e b2ad 873e
00000180: c131 843e c772 80be facf d2bd f3e4 213d
00000190: 8d25 0ebf 7ea4 94be f89a e3be 04e8 b93e
000001a0: 3898 303e 6e65 abbe da37 d2be 01af 7abe
000001b0: 57c4 2cbf 8ad2 09bf 905d 8dbe ab61 b5be
000001c0: c469 c53e 11c1 273d bb2a debe 9988 3dbf
000001d0: 6ef6 babd 6e94 67be 9ca8 4ebf 2c42 853d
000001e0: 8f74 a0be 6814 3e3f d92f 8c3e 1323 47bf
000001f0: e785 b93e ecc4 213e da89 47be 8174 cfbd
00000200: 447c 4dbf 6ce8 dabd fe58 a33d 4da8 ee3d
00000210: 0958 9cbd 48ca d2be 261e 5bbe 989f ed3d
00000220: 7bf0 083e 5bb0 dbbd 440b a6be c65d e73d
00000230: 057c 5e3e 1713 b4bc 693e 223e 6f6f da3d
00000240: 9f7f 283e 7202 25bd 3b25 943d 13f4 2abf
00000250: d2df b6be 1219 18bd d0dd b2bc 79c0 e2be
00000260: d583 94be 19c9 433f 9cf3 1f3f fda8 23bf
00000270: 4739 833d 0332 063c 7a87 b0bd 1a7c 06be
00000280: c20d 3c3e c881 28bf 9116 a73c de69 aebd
00000290: a3cc f9be 35be dabe f380 18bf 6f52 d83e
000002a0: 616f 9b3d 2c84 17bf 8dbd 2ebf 5945 bbbe
000002b0: 8605 19bf ca84 30bf 45e1 85be 5013 f83d
000002c0: 4370 1cbf 62df 4e3e b800 993e 7434 913e
000002d0: 5a56 d23e 1bad 19be c872 bd3c bdef 29be
000002e0: de35 903e c14a 34bc bb75 7dbe d029 22bd
000002f0: 68a1 233e f34c 3c3e 1f75 913e 366f b83d
00000300: b3d6 a63e 524e 80bf f160 e9bd 6083 b63e
00000310: a37e abbd be0a 70be adae a4be b005 b83e
00000320: 0fe7 babd 0cc1 38bf ae1a c4be 539d f93e
00000330: 5ddd 6ebf 8ea4 27bf 73b1 d23d e508 7d3e
00000340: af20 48bf ecb4 6abd 311f 753e 8cc0 453e
00000350: bd73 06bd 0060 fbbe cb46 f43d 73e7 513d
00000360: 7f63 9f3c 19b8 b73d 7565 8abe 3de5 bc3e
00000370: d334 4b3e 147e 033d e5ae 4b3e 3c32 fa3d
00000380: d5f0 e3be a41c b0bc f6d6 563e af48 c33e
00000390: ea84 bb3e 73ab ecbe 13b1 58be da2a 4dbe
000003a0: 554d e9bd 0f59 88be 3a8c 01bf 7c12 9a3e
000003b0: da53 f2bd 3e08 8cbe c294 f6bc ffa4 413e
000003c0: d338 f5bf f0c5 433e b1a8 813e dd5b aabd
000003d0: 211e 97bd ab6f 18bf ebe7 f23d 02a0 aa3e
000003e0: 3766 e33d 3f9d 8f3d 7b88 b8be 3a13 ccbd
000003f0: 466f 113e 1e19 0fbe 414e 383e 6c5a 98bd

prior.t.2.2.bias f4 [16]
-0.29296136 -0.2516339 0.42392966 -0.09947167 -0.13174635 -0.052855693 0.5022511 0.2945513
-0.10183776 -0.016854217 0.4917118 -0.19713305 0.44114202 -0.08063139 0.07025835 -0.09729002
00000000: 08ff 95be 29d6 80be 4f0d d93e ceb7 cbbd
00000010: 84e8 06be 367f 58bd 8793 003f 6ecf 963e
00000020: 5190 d0bd db11 8abc a6c1 fb3e 3fdd 49be
00000030: 5edd e13e 1222 a5bd 9ce3 8f3d fd3f c7bd

prior.t.2.4.weight f4 [1, 16]
0.7324311 0.21591392 -0.6881259 0.3356364 0.009810504 0.1356231 1.088506 -0.64614946
0.14892574 -0.86397034 1.1004558 0.27681705 0.7236053 0.28640932 0.33769587 0.26068366
00000000: 9b80 3b3f 8a18 5d3e 0529 30bf 89d8 ab3e
00000010: 3cbc 203c c8e0 0a3e 2a54 8b3f 0d6a 25bf
00000020: fd7f 183e 292d 5dbf bcdb 8c3f f7ba 8d3e
00000030: 323e 393f 3ea4 923e 79e6 ac3e 5478 853e

prior.s.0.0.weight f4 [16, 1]
-0.41658258 0.904162 0.55322737 -0.5765102 0.82956576 0.20516834 -0.12481373 -0.30683842
-0.3092433 0.2410763 -0.46690476 -1.0472587 -0.42405358 -0.21353962 0.5203581 0.62269735
00000000: 504a d5be 2977 673f 4fa0 0d3f 2c96 13bf
00000010: 6c5e 543f a617 523e 579e ffbd ed19 9dbe
00000020: 2355 9ebe b5dc 763e 240e efbe 930c 86bf
00000030: 8d1d d9be 21aa 5abe 3036 053f 1869 1f3f

prior.s.0.0.bias f4 [16]
-1.0153284 0.010407702 -0.33090472 -1.1553696 -0.19722122 -0.71815985 0.6638135 -0.7580019
0.22746022 -0.44637647 -0.63122267 0.83411676 -0.90476424 0.029663853 1.2083735 0.18762498
00000000: 48f6 81bf 1185 2a3c 586c a9be 27e3 93bf
00000010: 5cf4 49be 53d9 37bf aeef 293f 6a0c 42bf
00000020: 55eb 683e 758b e4be cf97 21bf ad88 553f
00000030: a19e 67bf 9c01 f33c fcab 9a3f c320 403e

prior.s.0.2.weight f4 [16, 16]
-0.37970695 -0.21954833 -0.12927338 -0.12821217 0.050784606 -0.07018051 0.1477481 -0.4836751
-0.044580474 0.023957381 0.17131387 0.27582303 -0.08275549 0.04562397 -0.9145643 0.029075984
-0.42229557 -0.11606321 -0.271718 -0.31722444 0.08393768 -0.14096819 0.30540255 -0.16271503
0.24586724 -0.11420309 -0.11973974 0.25900504 -0.032867227 0.13611007 -0.040442582 -0.009678786
-0.25183335 -0.27944604 -0.061377443 -0.24474566 0.017315434 -0.30837813 0.020730916 -0.44682258
0.30735564 -0.37915888 0.0908745 0.24595574 0.043414336 0.115405805 0.08319348 0.09208096
-0.18285014 0.03779336 -0.24904037 -0.11171099 -0.027047837 -1.2647772 -0.021885527 -0.5522787
0.05503766 0.00587264 0.1955355 -0.09574467 0.0043486967 -0.17125618 -0.2742476 -0.19650494
-1.1180885 -0.026040385 -0.2885595 -0.008698559 0.12924485 -1.4165112 0.30401683 -1.4828879
0.24876384 -0.13994715 0.020291865 0.1709766 -0.70107275 0.42749128 -0.016992705 0.15659218
-0.14536281 0.0060486216 -0.20444632 0.08801637 -0.10143946 0.1854183 0.074905306 0.17759301
-0.12898251 -0.14373837 0.1877663 -0.3784104 0.19778468 0.18656039 0.17838034 -0.18284295
-0.14932513 0.06377151 0.13194975 -0.29420984 0.15208086 1.4661193 -0.0010144725 -0.077029586
0.07348595 0.15914425 -0.75290096 0.00943746 -0.41469076 -0.21265125 -0.06527702 0.2596717
0.029442454 -0.06749245 -0.15828878 0.18792564 -0.10772036 0.34203652 -0.32435647 0.17536794
-0.16211985 0.12865748 0.35458195 0.18843226 0.14983842 -0.20592302 -0.07952481 -0.05228072
-0.03848222 0.15966417 0.20144294 0.0802194 0.13790567 1.1776062 -0.03930775 0.061752014
-0.26230475 0.11286365 -0.061276026 -0.37970656 0.15868457 -0.10906045 -0.17860462 0.24112499
0.115971595 0.14919543 0.31739503 0.13828605 0.13576409 1.4185617 0.15864168 0.24667476
-0.17814898 0.08657819 0.31902975 -0.027862146 0.34245834 0.019988783 0.1208625 0.057980426
-0.23708566 -0.29893482 -0.28834066 -0.03217234 0.060425144 -1.0482684 0.030436445 -0.21568663
0.1857986 -0.2856879 -0.24944507 -0.1023329 -0.12105641 -0.102540076 -0.13712065 -0.09555931
-0.19883002 -0.02866665 0.13794726 0.11877538 -0.24797872 -0.738065 0.06691043 -0.1614818
-0.0038121955 -0.18469308 -0.25265634 0.26858556 -0.24988885 -0.08088593 0.08764199 0.1552262
0.29476884 -0.08598858 0.35248742 0.045106582 -0.009702369 2.0983896 -0.5841728 0.17618161
-0.26097628 0.1369939 0.056581404 -0.030995743 0.008165195 -0.032830965 -0.1130027 0.16695295
-0.18263768 -0.060699403 -0.11340209 -0.27261806 -0.16540234 -0.120306045 0.062233172 -0.35048643
0.056880664 0.16366056 -0.15088116 0.15903603 0.051632904 -0.11749987 -0.8473785 0.09513232
-0.2936124 -0.18000865 0.07162986 -0.03901362 0.006734852 -0.27112713 0.31552416 -0.20925106
0.14789985 -0.14043348 0.09658401 0.26837534 -0.22927321 0.03278687 -0.10537273 -0.26449385
-0.00061458064 -0.22860971 0.050668634 -0.22733128 0.02028628 -1.0875045 0.0834014 -0.33300078
0.2626768 -0.2810403 -0.19842233 -0.09964218 -0.27181816 0.055585038 -0.1585455 0.0066733635
00000000: f368 c2be 47d1 60be 3e60 04be 0d4a 03be
00000010: 8503 503d cdba 8fbd 474b 173e 43a4 f7be
00000020: 049a 36bd 4542 c43c e76c 2f3e ad38 8d3e
00000030: b67b a9bd 33e0 3a3d e320 6abf c230 ee3c
00000040: 2037 d8be 8cb2 edbd 9f1e 8bbe 3e6b a2be
00000050: 85e7 ab3d f759 10be b95d 9c3e c59e 26be
00000060: 9fc4 7b3e 4fe3 e9bd 1c3a f5bd 4f9c 843e
00000070: c99f 06bd 7060 0b3e 1fa7 25bd c593 1ebc
00000080: 4df0 80be 8d13 8fbe ea66 7bbd 9b9e 7abe
00000090: 19d9 8d3c bde3 9dbe e2d3 a93c eec5 e4be
000000a0: b85d 9d3e 1d21 c2be 691c ba3d d2db 7b3e
000000b0: 3bd3 313d e159 ec3d 5861 aa3d f194 bc3d
000000c0: 113d 3bbe 36cd 1a3d 7004 7fbe bbc8 e4bd
000000d0: 6d93 ddbc 38e4 a1bf 4749 b3bc 2362 0dbf
000000e0: 2b6f 613d 466f c03b 753a 483e c815 c4bd
000000f0: 837f 8e3b c85d 2fbe 2e6a 8cbe 9738 49be
00000100: 861d 8fbf a552 d5bc 12be 93be 6784 0ebc
00000110: c358 043e 3d50 b5bf 18a8 9b3e 45cf bdbf
00000120: f3bb 7e3e 4e4e 0fbe 203b a63c 7d14 2f3e
00000130: 8179 33bf 23e0 da3e 4934 8bbc b359 203e
00000140: fdd9 14be 8433 c63b 605a 51be ed41 b43d
00000150: 7ebf cfbd 4bde 3d3e f467 993d f1da 353e
00000160: fe13 04be 2730 13be cf45 403e 02bf c1be
00000170: 1188 4a3e b009 3f3e 56a9 363e 2f3b 3bbe
00000180: b0e8 18be a39a 823d d61d 073e aca2 96be
00000190: 16bb 1b3e cca9 bb3f 0cf8 84ba b0c1 9dbd
000001a0: cd7f 963d b6f6 223e 1ebe 40bf 949f 1a3c
000001b0: 5952 d4be 40c1 59be f5af 85bd b0f3 843e
000001c0: 4d31 f13c 7b39 8abd 7416 22be 946f 403e
000001d0: 7e9c dcbd 691f af3e 0d12 a6be a793 333e
000001e0: bf02 26be c9be 033e c48b b53e 63f4 403e
000001f0: 3e6f 193e 7cdd 52be e7dd a2bd 4f24 56bd
00000200: 889f 1dbd 017f 233e 0f47 4e3e 124a a43d
00000210: 2537 0d3e cdbb 963f 2a01 21bd aeef 7c3d
00000220: cf4c 86be 0f25 e73d 92fc 7abd e668 c2be
00000230: 357e 223e 165b dfbd 21e4 36be 78e9 763e
00000240: 8482 ed3d b0c6 183e 9a81 a23e dc9a 0d3e
00000250: be05 0b3e 6e93 b53f f772 223e 4f98 7c3e
00000260: b06c 36be e84f b13d de57 a33e 283f e4bc
00000270: b356 af3e 84bf a33c c286 f73d e27c 6d3d
00000280: 95c6 72be fc0d 99be 63a1 93be 25c7 03bd
00000290: 5b80 773d a92d 86bf da55 f93c f5dc 5cbe
000002a0: fd41 3e3e af45 92be 876e 7fbe e993 d1bd
000002b0: 6cec f7bd 8800 d2bd 5b69 0cbe 99b4 c3bd
000002c0: 199a 4bbe 53d6 eabc 0c42 0d3e 8240 f33d
000002d0: 22ee 7dbe d4f1 3cbf 5608 893d 7c5b 25be
000002e0: 07d6 79bb 2f20 3dbe 2c5c 81be 0c84 893e
000002f0: dde2 7fbe 86a7 a5bd a57d b33d 9ef3 1e3e
00000300: f1eb 963e c81a b0bd 3b79 b43e aec1 383d
00000310: aff6 1ebc 044c 0640 598c 15bf f468 343e
00000320: af9e 85be 2148 0c3e e7c1 673d c9ea fdbc
00000330: 4fc7 053c c379 06bd f66d e7bd b7f5 2a3e
00000340: 5f05 3bbe f09f 78bd 5b3f e8bd 9894 8bbe
00000350: 3b5f 29be 0463 f6bd 36e8 7e3d f572 b3be
00000360: b3fb 683d a296 273e 9780 1abe 57da 223e
00000370: 067d 533d c6a3 f0bd cced 58bf bcd4 c23d
00000380: 5d54 96be 3054 38be adb2 923d bfcc 1fbd
00000390: 09b0 dc3b 2dd1 8abe 628c a13e e945 56be
000003a0: 0f73 173e cbcd 0fbe d6cd c53d 7e68 893e
000003b0: 99c6 6abe 864b 063d a8cd d7bd bd6b 87be
000003c0: cf1b 21ba aa18 6abe ea89 4f3d 88c9 68be
000003d0: 6a2f a63c 5933 8bbf 5ace aa3d 147f aabe
000003e0: 937d 863e 84e4 8fbe 392f 4bbe 3311 ccbd
000003f0: c02b 8bbe 23ad 633d c059 22be 3bac da3b

prior.s.0.2.bias f4 [16]
-0.18516998 0.28983095 -0.035756826 -0.0133910505 0.22634716 -0.11102322 0.2566856 -0.29758736
-0.03619558 -0.101496466 0.13385779 0.12784941 -0.3322893 0.12986106 0.06366804 -0.01985959
00000000: 339d 3dbe b964 943e c075 12bd 2366 5bbc
00000010: 8dc7 673e 2460 e3bd 4c6c 833e 5f5d 98be
00000020: d141 14bd 61dd cfbd 0412 093e f5ea 023e
00000030: d321 aabe 4cfa 043e 6464 823d 94b0 a2bc

prior.s.0.4.weight f4 [1, 16]
0.22732076 0.3156319 0.3110971 0.12652175 0.13982618 0.07558622 -0.13664912 -0.24260294
-0.13580166 -0.24192372 0.16062243 0.015669145 -0.42798182 0.40860945 0.16993067 0.20870164
00000000: c6c6 683e 819a a13e 1e48 9f3e eb8e 013e
00000010: 982e 0f3e f3cc 9a3d bfed 0bbe e86c 78be
00000020: 970f 0bbe daba 77be 357a 243e 945c 803c
00000030: 6f20 dbbe 4235 d13e 4e02 2e3e e2b5 553e

prior.s.1.0.weight f4 [16, 1]
-0.65876234 0.54981816 0.43198016 0.32903767 -0.056709412 0.25951993 0.23232946 0.9836018
-0.99093187 -0.25887492 -0.67395824 -0.27761814 0.21682502 0.40180376 -0.71397096 0.6042969
00000000: a6a4 28bf e2c0 0c3f 812c dd3e a077 a83e
00000010: 2148 68bd ccdf 843e c6e7 6d3e 54cd 7b3f
00000020: b6ad 7dbf 418b 84be 8788 2cbf f723 8ebe
00000030: 6107 5e3e 39b9 cd3e cdc6 36bf 34b3 1a3f

prior.s.1.0.bias f4 [16]
1.0199656 -0.4320878 0.1664426 -0.83102524 0.03090795 -0.6568645 -0.59517944 -0.65921515
-0.88786393 1.0692334 -0.19628006 -0.42770544 -0.8087837 0.9025741 -0.57748413 -0.3376592
00000000: 3c8e 823f 9d3a ddbe ee6f 2a3e 12be 54bf
00000010: ab32 fd3c 4628 28bf ae5d 18bf 53c2 28bf
00000020: 0d4b 63bf a4dc 883f a4fd 48be 35fc dabe
00000030: 730c 4fbf 190f 673f 00d6 13bf abe1 acbe
