trained_models/Spiral_timestep_1/model_BetaCVAE_De_CMLP_En_CMLP_Prior_RealNVP_Con_Id_Dis_None_comment_test/BetaCVAE_training_2024-11-01_10-29-30/final_model/model.pt (torch, 25748 bytes, 44 tensors)

encoder.net.0.weight f4 [16, 3]
0.09926668 0.4446014 -0.43076843 -0.43628508 -0.20761219 0.42147353 0.25844142 0.41647443
0.18468492 0.13204113 -0.10333291 -0.08509552 -0.7652945 -0.22737296 -0.1736691 0.22304592
0.3066148 0.5011575 -0.32876596 -0.33015028 0.63063234 0.59950054 -0.4871008 0.5964291
0.10064004 -0.18805146 0.7165339 -0.71355194 -0.26352972 -0.1934103 -0.112090476 0.66203487
-0.4216139 -0.20398217 -0.62162024 -0.22773176 -0.31222025 0.3781785 0.6905015 0.51261836
-0.18492293 -0.07287148 0.034208387 -0.72237104 -0.29000506 -0.23168258 0.39032853 0.47322991
00000000: 544c cb3d cba2 e33e ae8d dcbe c260 dfbe
00000010: 4a98 54be 61cb d73e 6f52 843e 233c d53e
00000020: 0b1e 3d3e ca35 073e 34a0 d3bd 8f46 aebd
00000030: 57ea 43bf 75d4 68be 50d6 31be 2666 643e
00000040: 9dfc 9c3e dc4b 003f 0354 a8be 7509 a9be
00000050: 1f71 213f de78 193f 4765 f9be 94af 183f
00000060: 5e1c ce3d 9090 40be c46e 373f 57ab 36bf
00000070: 5eed 86be 5a0d 46be b18f e5bd 1e7b 293f
00000080: c7dd d7be b4e0 50be 8122 1fbf 8432 69be
00000090: 55db 9fbe 9da0 c13e b5c4 303f f53a 033f
000000a0: 705c 3dbe a43d 95bd 181e 0c3d 4fed 38bf
000000b0: 8b7b 94be 333e 6dbe 24d9 c73e 314b f23e

encoder.net.0.bias f4 [16]
-0.21163474 0.24582128 0.605173 0.60235506 0.29346818 0.2327313 0.80803514 -0.17555241
0.30134383 -0.49486673 -0.44754085 0.014742413 0.6941126 0.45531374 -0.21482633 0.30913723
00000000: c7b6 58be 93b8 7b3e 9eec 1a3f f133 1a3f
00000010: 7641 963e 1d51 6e3e 64db 4e3f 03c4 33be
00000020: bd49 9a3e 2c5f fdbe 1324 e5be 298a 713c
00000030: 5db1 313f e21e e93e 6ffb 5bbe 3c47 9e3e

encoder.net.2.weight f4 [16, 16]
0.16739838 -0.13645609 0.13885595 0.20160304 0.11719182 0.44949025 -0.27620417 0.0709572
0.32869592 0.34313527 0.3812136 -2.116592e-05 0.1826334 -0.059991892 -0.25644922 -0.063290484
-0.09329103 -0.10630806 0.25524843 -0.37870923 -0.05767397 -0.006087314 -0.98459834 -0.0062800576
0.0073959352 -0.24690036 0.2976028 0.07025879 0.24254225 -0.10747307 -0.2859398 -0.10712058
0.044809707 0.18499291 -0.23340808 -0.12292899 0.3275691 0.1439507 0.039469596 -0.23487611
-0.15745962 0.054222725 -0.13291304 -0.25527322 0.15702523 -0.19596197 -0.42767635 0.29948336
-0.09481484 0.04356454 0.22526798 -0.17782266 -0.059810497 0.06935561 -0.58046657 0.3711622
0.15179262 -0.056655373 0.13740738 0.1431148 -0.15566199 -0.0704117 0.087732494 -0.06694521
0.00011813753 -0.1445088 0.064822175 0.21929958 -0.13412297 0.16961345 0.19384244 0.16149458
0.23345149 -0.0706117 0.016552271 0.22839049 0.12765789 0.39738885 0.17909598 -0.12788606
-0.37037125 -0.08922368 0.24782547 0.28736344 -0.11423515 -0.0718824 0.17071855 -0.22788608
0.22354771 0.07574433 0.15839218 -0.2561925 0.3322308 -0.2559746 -0.26376995 0.07524324
0.15407656 -0.05993744 -0.040590424 -0.118911654 -0.06352141 0.22241561 -0.058474805 0.067098156
0.03964227 -0.042461067 0.45972022 -0.096207276 0.38396928 0.13406496 -0.17490055 0.30373067
-0.55956155 -0.12077 0.113812715 -0.16119523 -0.21501055 -0.24881926 0.34452212 -0.0043976908
0.15568396 -0.31681457 -0.05358542 0.08562486 -0.051154964 0.0020215947 0.6297483 0.35528487
0.025585212 0.17098996 -0.08839309 0.07986196 -0.08121565 0.14595182 0.054298986 0.23209937
0.22901261 -0.06812414 0.0013792019 0.15647705 -0.23817222 0.44757536 0.33535722 0.14032996
0.29878426 -0.30539012 0.19548598 -0.120550394 -0.18553574 0.12531902 -0.9535973 0.22265127
-0.19923575 -0.1993792 0.30690718 -0.15697184 0.0137256775 0.43264508 -0.0742726 0.056113478
-0.24078882 0.07457873 -0.17309183 -0.11944356 -0.13727547 -0.04961638 -0.041566923 0.20029162
0.0022290687 0.16241895 0.15746026 -0.1867512 0.08708434 -0.19652253 -0.11153057 0.046452682
-0.110963166 0.299563 -0.014844972 0.19970223 0.23758931 -0.10151008 0.46535435 -0.16244838
0.21391347 0.15305924 -0.027021637 0.07860166 0.46870744 -0.014766076 -0.23338637 0.1529254
-0.28464323 0.26440817 -0.29326984 -0.031774312 -0.07072796 -0.11273238 0.30275106 0.35338113
0.111434326 -0.18962346 0.024874406 0.32519883 0.014004445 0.1925606 0.011234699 -0.29566416
-0.3494279 0.14307696 -0.389002 -0.18121994 0.25590047 -0.61055064 0.080159985 0.093016386
-0.041414905 -0.25330165 0.21157879 0.33021206 0.029839039 0.13370183 -0.027848192 0.10463218
-0.05716905 -0.011117786 -0.15226105 0.08455023 0.07904148 -0.005157143 -0.05622554 -0.15410745
0.1728862 -0.18610603 0.10241637 -0.08406338 -0.120617 0.044911265 -0.12986425 0.057601213
0.2511074 -0.32215402 0.17198424 -0.029978557 0.06825339 0.07866726 -0.8536523 -0.025861153
0.10545984 -0.14128883 0.22625719 0.17730027 -0.072838746 0.077129096 0.15618293 0.07299004
00000000: 7b6a 2b3e 25bb 0bbe 4130 0e3e 0771 4e3e
00000010: 4402 f03d 9623 e63e a26a 8dbe 0252 913d
00000020: d54a a83e 6daf af3e 6e2e c33e 788d b1b7
00000030: 4004 3b3e 0fba 75bd 504d 83be 719e 81bd
00000040: 5e0f bfbd 0ab8 d9bd ecaf 823e 2de6 c1be
00000050: 8a3b 6cbd 1778 c7bb a30e 7cbf f1c8 cdbb
00000060: 9a59 f23b 73d3 7cbe 655f 983e d7e3 8f3d
00000070: ff5c 783e d71a dcbd b466 92be 0962 dbbd
00000080: 628a 373d c86e 3d3e 8702 6fbe 32c2 fbbd
00000090: 23b7 a73e d067 133e dfaa 213d 5d83 70be
000000a0: 183d 21be a618 5e3d 5b1a 08be 2cb3 82be
000000b0: 39cb 203e 41aa 48be 65f8 dabe e255 993e
000000c0: 482e c2bd bb70 323d a6ac 663e 2517 36be
000000d0: dafb 74bd 500a 8e3d 7599 14bf f908 be3e
000000e0: 866f 1b3e 770f 68bd 85b4 0c3e b08c 123e
000000f0: db65 1fbe 0234 90bd 18ad b33d 921a 89bd
00000100: 9ac0 f738 1dfa 13be 7dc1 843d 1290 603e
00000110: 8857 09be 26af 2d3e a27e 463e d65e 253e
00000120: e80d 6f3e de9c 90bd a198 873c 32df 693e
00000130: c0b8 023e 8d76 cb3e f064 373e 90f4 02be
00000140: 4da1 bdbe e8ba b6bd f6c5 7d3e 4d21 933e
00000150: 1ef4 e9bd 1437 93bd d8d0 2e3e f85a 69be
00000160: b1e9 643e d81f 9b3d 8f31 223e aa2b 83be
00000170: 281a aa3e 1a0f 83be db0c 87be 2119 9a3d
00000180: 3fc6 1d3e f680 75bd 2542 26bd f487 f3bd
00000190: 8317 82bd ebc0 633e 4783 6fbd c26a 893d
000001a0: ef5f 223d a8eb 2dbd 7360 eb3e 5208 c5bd
000001b0: 9f97 c43e 5348 093e 2119 33be 9682 9b3e
000001c0: 6d3f 0fbf 4356 f7bd a416 e93d 5d10 25be
000001d0: ba2b 5cbe 7aca 7ebe 3465 b03e 811a 90bb
000001e0: 9e6b 1f3e 8535 a2be 637c 5bbd 165c af3d
000001f0: de87 51bd bb7c 043b 2f37 213f e6e7 b53e
00000200: 1498 d13c fe17 2f3e 7007 b5bd ab8e a33d
00000210: 6454 a6bd 6574 153e 9d68 5e3d 75ab 6d3e
00000220: 4882 6a3e ab84 8bbd 56c6 b43a 853b 203e
00000230: 6be3 73be 9928 e53e f1b3 ab3e a8b2 0f3e
00000240: 40fa 983e 185c 9cbe 7a2d 483e 20e3 f6bd
00000250: 15fd 3dbe a153 003e f41e 74bf b2fe 633e
00000260: 7504 4cbe 102a 4cbe f022 9d3e 3abd 20be
00000270: aae1 603c a883 dd3e 3c1c 98bd 3fd7 653d
00000280: 5891 76be bcbc 983d fc3e 31be d39e f4bd
00000290: f191 0cbe 8c3a 4bbd 1442 2abd 3f19 4d3e
000002a0: 9115 123b 2751 263e 433d 213e b53b 3fbe
000002b0: 4659 b23d 343d 49be 246a e4bd 2b45 3e3d
000002c0: a840 e3bd 5260 993e 5338 73bc be7e 4c3e
000002d0: 9d4a 733e 84e4 cfbd ed42 ee3e de58 26be
000002e0: 220c 5b3e 90bb 1c3e 7b5c ddbc e8f9 a03d
000002f0: 6cfa ef3e 69ed 71bc d6fc 6ebe 7a98 1c3e
00000300: c2bc 91be 8260 873e 7727 96be c825 02bd
00000310: d2d9 90bd 3ce0 e6bd 3002 9b3e 5fee b43e
00000320: ae37 e43d a72c 42be 69c5 cb3c 7680 a63e
00000330: e672 653c 9b2e 453e be11 383c 4b61 97be
00000340: 37e8 b2be c482 123e 452b c7be b891 39be
00000350: 6305 833e 0c4d 1cbf eb2a a43d 607f be3d
00000360: ada2 29bd c1b0 81be 1ca8 583e 8e11 a93e
00000370: 0071 f43c 22e9 083e e421 e4bc 6549 d63d
00000380: 182a 6abd 6027 36bc 52ea 1bbe ac28 ad3d
00000390: 80e0 a13d 40fd a8bb c04c 66bd 58ce 1dbe
000003a0: 1409 313e 9492 3ebe acbf d13d 6c29 acbd
000003b0: 0c06 f7bd e0f4 373d 22fb 04be 40ef 6b3d
000003c0: 2691 803e 5ff1 a4be a31c 303e 9795 f5bc
000003d0: 6fc8 8b3d 4d1c a13d f588 5abf c5da d3bc
000003e0: 54fb d73d 05ae 10be f7af 673e 348e 353e
000003f0: 7b2c 95bd dcf5 9d3d 6bee 1f3e cd7b 953d

encoder.net.2.bias f4 [16]
0.21038398 -0.0023556657 -0.07255091 0.049889546 0.28753522 0.48572534 0.35924986 0.09567342
0.28375837 -0.14257188 -0.2408277 0.04468728 0.3390495 0.18238033 -0.17280844 0.08689594
00000000: e66e 573e 8361 1abb 9295 94bd fb58 4c3d
00000010: d137 933e feb0 f83e 99ef b73e 6df0 c33d
00000020: c748 913e 5dfe 11be 899b 76be 020a 373d
00000030: e597 ad3e e9c1 3a3e b2f4 30be 80f6 b13d

encoder.mean_net.weight f4 [2, 16]
0.33201563 0.4938602 0.025590548 0.12770331 -0.14391372 0.078377016 0.37641144 -0.045705948
-0.4959008 0.09397255 0.12960207 0.030095736 -0.3924703 -0.30329028 -0.08764061 0.19741102
-0.18196498 -0.17454596 0.27210274 -0.24621451 -0.1770038 0.4058747 -0.2228111 0.0606167
-0.22618109 -0.5878105 -0.22460772 0.4547427 0.14879583 0.35121292 0.20028031 -0.44736537
00000000: f4fd a93e 3edb fc3e 45a3 d13c a8c4 023e
00000010: 1e5e 13be 2184 a03d 00b9 c03e 2936 3bbd
00000020: b6e6 fdbe ae74 c03d 68b6 043e 558b f63c
00000030: def1 c8be dd48 9bbe ec7c b3bd 1d26 4a3e
00000040: 0755 3abe 2dbc 32be 0d51 8b3e a81f 7cbe
00000050: 7c40 35be cfce cf3e 9828 64be 3849 783d
00000060: 049c 67be c07a 16bf 91ff 65be 09d4 e83e
00000070: ef5d 183e 2ed2 b33e 4816 4d3e 130d e5be

encoder.mean_net.bias f4 [2]
-0.27007523 0.026684958
00000000: 4d47 8abe 6a9a da3c

encoder.log_var_net.weight f4 [2, 16]
-0.43026692 -0.14900208 0.06779122 0.04661905 -0.37220913 -0.19024403 0.028186794 0.6330896
0.047199618 0.2823229 0.18137218 -0.2743892 -0.12945612 0.1502575 0.08270469 0.03768709
-0.13541006 0.004922459 0.6115106 0.56979257 -0.17544283 -0.42220694 -0.38406163 -0.31765908
-0.19744882 0.3732867 0.1497849 -0.23415443 -0.11749915 0.270391 0.15987223 -0.18107717
00000000: f24b dcbe 0094 18be 20d6 8a3d 9ef3 3e3d
00000010: 3292 bebe 55cf 42be fee7 e63c 2912 223f
00000020: 6354 413d a18c 903e a1b9 393e be7c 8cbe
00000030: 2590 04be 1add 193e 1461 a93d c75d 1a3d
00000040: efa8 0abe 944c a13b f58b 1c3f eddd 113f
00000050: 49a7 33be 822b d8be baa3 c4be 36a4 a2be
00000060: 0630 4abe 6f1f bf3e 3661 193e 2ec6 6fbe
00000070: 65a3 f0bd b070 8a3e 8cb5 233e 4b6c 39be

encoder.log_var_net.bias f4 [2]
-0.28829134 0.01639515
00000000: ec9a 93be 1f4f 863c

decoder.net.0.weight f4 [16, 3]
0.38395378 -0.2555896 0.6606835 0.571093 -0.02618097 0.63217014 -0.28968546 0.12623295
1.0277641 0.06968075 0.09073239 0.35975048 -0.16267094 0.1706068 0.5531673 0.931345
0.5455349 -0.35885724 -0.07279418 0.46186903 0.81494075 -0.69447756 0.12899335 -0.23020199
-0.42121318 0.2822232 -0.46147957 0.2488476 0.6262679 0.64705217 -0.25933084 -0.06445569
0.4359877 -0.4672015 0.8984156 -0.4271575 -0.65399355 -0.5713317 0.262303 0.50143075
-0.44937855 0.8038125 -0.39095044 0.27710572 0.22189061 -0.658006 0.8313881 0.6774373
00000000: 9795 c43e a4dc 82be 8e22 293f 2733 123f
00000010: 7979 d6bc e7d5 213f a751 94be 3643 013e
00000020: c68d 833f c8b4 8e3d e7d1 b93d 3731 b83e
00000030: 3693 26be 8db3 2e3e 5f9c 0d3f a06c 6e3f
00000040: 2da8 0b3f 23bc b7be 1d15 95bd 197a ec3e
00000050: f59f 503f 48c9 31bf d516 043e 12ba 6bbe
00000060: 41a9 d7be 8f7f 903e 0d47 ecbe e8d1 7e3e
00000070: 1853 203f 36a5 253f 03c7 84be 5801 84bd
00000080: c839 df3e 0935 efbe 91fe 653f 63b4 dabe
00000090: 1f6c 27bf cb42 12bf 944c 863e c45d 003f
000000a0: f214 e6be a8c6 4d3f a82a c8be cde0 8d3e
000000b0: 4b37 633e 1573 28bf dad5 543f 886c 2d3f

decoder.net.0.bias f4 [16]
0.6819953 0.59929466 0.15644556 1.0345702 0.52894425 0.27140942 0.06561547 0.032791436
-0.6183701 0.38431153 0.43446755 -0.35631242 0.5634645 0.63385224 0.2759929 -0.01973069
00000000: 3e97 2e3f 606b 193f 4433 203e cc6c 843f
00000010: e468 073f 2df6 8a3e 6761 863d 5050 063d
00000020: 814d 1ebf 7bc4 c43e 8872 de3e 956e b6be
00000030: 363f 103f 2444 223f f14e 8d3e 42a2 a1bc

decoder.net.2.weight f4 [16, 16]
-0.13342576 0.05277873 0.39486828 0.10904554 0.3276035 -0.2303731 0.34827057 -0.09109165
-0.41290653 0.36538184 -0.03671963 0.3457064 -0.009288608 -0.19221535 0.07248671 0.15597735
0.093610756 0.40603855 0.17516783 0.3682876 0.16963741 0.14083211 -0.54819095 -0.11298869
0.586716 -0.38636416 0.35807738 -0.46338394 -0.10236964 -0.009274177 0.05677312 0.14294797
-0.03371508 0.1164313 0.35431576 0.38565162 0.4966036 -0.6517514 -0.10781072 -0.015218386
-0.21109226 -0.5348771 0.07945687 -0.17532957 -0.004682836 0.08368014 -0.034212954 -0.26499495
-0.0021872385 -0.24493597 0.27954304 -0.02258414 0.21768011 -0.77903426 0.08879348 -0.123575546
-0.44801638 -0.25338763 0.30598304 0.07361627 0.08890307 -0.055959415 0.40827155 0.27315804
-0.19620715 -0.22046533 -0.19579628 -0.01598718 -0.06512379 -0.16830902 -0.08861494 0.036539134
-0.13062268 0.05624372 -0.0645345 -0.12037514 0.021757683 0.19135058 -0.16787693 0.014275046
-0.8088123 0.13811493 -0.32076216 -0.5707133 0.08025955 0.21886197 0.26806778 0.11442507
0.3752135 0.20565595 0.0017382363 0.28875303 -0.24898987 -0.11547614 -0.017761339 0.28932843
-0.06272602 -0.06002899 0.11329669 0.08040178 0.4381944 -0.6849262 0.12798265 0.091479175
-0.35089526 -0.5973741 0.118106335 0.24645828 0.010909323 -0.19646743 0.22314444 0.19013375
0.07140932 -0.015821831 -0.27640915 0.094037294 0.03317171 -0.44691834 0.07538118 -0.46992376
0.47616732 0.25786918 -0.0042481213 -0.5047967 -0.4321311 0.35117707 0.4408169 0.37039012
-0.20658262 0.3474904 0.28255457 0.3348715 -0.13483363 -0.14176421 -0.22264344 0.3072427
0.24650766 0.12977819 0.23025815 -0.1727824 -0.09181253 -0.03870102 0.09936976 0.07292909
0.21586882 -0.1899927 0.17274444 0.26062846 0.27634653 -0.23510444 0.5700343 -0.0809623
-0.31621724 0.46139687 0.042055275 -0.06643357 -0.16094355 -0.25067392 0.16210307 -0.17764597
0.006041887 0.31064063 0.1515797 0.0043594227 -0.019091098 0.18482685 0.4918527 -0.14385544
-0.31473005 -0.017427966 -0.38941354 0.24186258 -0.35674828 0.25200284 0.4548373 0.061929114
-0.15472129 0.43631658 -0.18127471 0.34141985 -0.09430607 -0.0907863 0.18448125 -0.44610998
0.9181053 0.20361814 -0.21749055 -0.13288465 -0.20705067 0.26089275 -0.0136430925 0.41024092
0.007906255 -0.42933938 0.34815535 -0.11378964 0.245944 -0.2936828 -0.12850589 0.14974515
-0.35216326 -0.20842616 -0.12224907 -0.08912867 0.01012753 0.08720401 0.20989765 0.15949848
0.15376244 0.04097663 0.46735746 0.23368691 0.6281354 -0.5236244 -0.22063474 -0.18778284
0.035022154 -0.2766948 0.20628935 -0.6917586 0.20145988 0.21575686 0.038422894 -0.34720322
0.27998385 0.42636746 0.17416684 0.059554428 0.4518369 -0.18910694 -0.22475784 0.012319631
0.16972812 0.035927624 0.059981074 -0.1484697 0.017749446 0.058688752 0.0418824 0.30036098
0.0034121778 0.18651211 0.00973622 -0.054101944 -0.14310716 -0.31879106 0.47065607 0.025260746
-0.21540758 0.30188087 0.20927699 0.3800949 0.28882346 -0.11039223 -0.05071666 -0.27977055
00000000: c3a0 08be 822e 583d 2d2c ca3e 4553 df3d
00000010: a5bb a73e ede6 6bbe 8550 b23e 428e babd
00000020: 7c68 d3be 5413 bb3e 5367 16bd 6e00 b13e
00000030: 3f2f 18bc 1ad4 44be ea73 943d 87b8 1f3e
00000040: ffb6 bf3d 49e4 cf3e 325f 333e 3190 bc3e
00000050: 6eb5 2d3e 4b36 103e 3e56 0cbf 9d66 e7bd
00000060: 0533 163f 86d1 c5be eb55 b73e a940 edbe
00000070: 2ca7 d1bd b8f2 17bc ee8a 683d f460 123e
00000080: d318 0abd 8973 ee3d e068 b53e 2174 c53e
00000090: d442 fe3e 2ed9 26bf decb dcbd 8a56 79bc
000000a0: 9228 58be b5ed 08bf 49ba a23d 9889 33be
000000b0: 7a72 99bb 7e60 ab3d e222 0cbd 6bad 87be
000000c0: c657 0fbb 7fd0 7abe 4420 8f3e 6002 b9bc
000000d0: 89e7 5e3e ca6e 47bf 5bd9 b53d 2d15 fdbd
000000e0: 6762 e5be 06bc 81be cfa9 9c3e 21c4 963d
000000f0: d012 b63d b335 65bd f808 d13e 5fdb 8b3e
00000100: 87ea 48be aac1 61be d27e 48be 8cf7 82bc
00000110: 9f5f 85bd 3359 2cbe c07b b5bd 0faa 153d
00000120: f4c1 05be d15f 663d aa2a 84bd 3e87 f6bd
00000130: 2b3d b23c 68f1 433e eee7 2bbe e2e1 693c
00000140: 530e 4fbf 006e 0d3e f03a a4be 441a 12bf
00000150: 1e5f a43d 5a1d 603e 2e40 893e b157 ea3d
00000160: fc1b c03e 7997 523e 88d5 e33a 70d7 933e
00000170: 33f7 7ebe c17e ecbd 3a80 91bc db22 943e
00000180: 8076 80bd f5e0 75bd 1808 e83d b0a9 a43d
00000190: 045b e03e 5357 2fbf e20d 033e 6f59 bb3d
000001a0: 8ba8 b3be 82ed 18bf bce1 f13d 8f5f 7c3e
000001b0: 04bd 323c c22e 49be fa7f 643e 6cb2 423e
000001c0: 0d3f 923d c99c 81bc 8085 8dbe a096 c03d
000001d0: 0fdf 073d 7bd2 e4be 7361 9a3d d999 f0be
000001e0: 34cc f33e 6e07 843e d333 8bbb 5b3a 01bf
000001f0: 4a40 ddbe 7bcd b33e c1b2 e13e c6a3 bd3e
00000200: 658a 53be 43ea b13e feaa 903e 4774 ab3e
00000210: d411 0abe a32a 11be a4fc 63be ea4e 9d3e
00000220: 816c 7c3e 93e4 043e cbc8 6b3e dfed 30be
00000230: 3508 bcbd f684 1ebd 5f82 cb3d d95b 953d
00000240: b70c 5d3e 728d 42be ebe3 303e 1871 853e
00000250: 4b7d 8d3e 38bf 70be c5ed 113f 90cf a5bd
00000260: 3ae7 a1be 363c ec3e 2742 2c3d 530e 88bd
00000270: 63ce 24be 5558 80be 59fe 253e d3e8 35be
00000280: 06fb c53b 4a0c 9f3e b537 1b3e 7dd9 8e3b
00000290: ef64 9cbc 4043 3d3e 1ed4 fb3e d74e 13be
000002a0: 4c24 a1be 18c5 8ebc 3661 c7be d3aa 773e
000002b0: b6a7 b6be 8406 813e 6fe0 e83e 62a9 7d3d
000002c0: 426f 1ebe e364 df3e 14a0 39be 95ce ae3e
000002d0: 8a23 c1bd 2bee b9bd a7e8 3c3e 8768 e4be
000002e0: f308 6b3f 4681 503e d8b5 5ebe ea12 08be
000002f0: 1705 54be bc93 853e 4787 5fbc 190b d23e
00000300: 3d89 013c 5fd2 dbbe 6b41 b23e 8b0a e9bd
00000310: bed8 7b3e 985d 96be 0c97 03be cb56 193e
00000320: be4e b4be ab6d 55be b85d fabd 1889 b6bd
00000330: f1ed 253c 0498 b23d 69ef 563e 9253 233e
00000340: e773 1d3e 1cd7 273d 7a49 ef3e 9f4b 6f3e
00000350: 7bcd 203f 400c 06bf 13ee 61be 254a 40be
00000360: 6473 0f3d f1aa 8dbe 843d 533e 1717 31bf
00000370: 804b 4e3e 5eef 5c3e 5361 1d3d 9fc4 b1be
00000380: 0b5a 8f3e d64c da3e cb58 323e 58ef 733d
00000390: 2b57 e73e 40a5 41be eb26 66be 47d8 493c
000003a0: 35cd 2d3e d828 133d b7ae 753d 7108 18be
000003b0: 4967 913c 9e63 703d e18c 2b3d eac8 993e
000003c0: d89e 5f3b 08fd 3e3e ab84 1f3c 009a 5dbd
000003d0: af8a 12be 9538 a3be d5f9 f03e a0ef ce3c
000003e0: ce93 5cbe 2190 9a3e b54c 563e cc9b c23e
000003f0: abe0 933e 5215 e2bd 46bc 4fbd 163e 8fbe

decoder.net.2.bias f4 [16]
0.18031909 0.2616453 0.46337473 -0.045197442 0.14552198 -0.20736113 0.103100665 0.43933517
0.09733731 0.33164522 0.10374074 0.48063245 0.07613479 0.23938534 0.3097047 -0.055297505
00000000: 91a5 383e 5ff6 853e 743f ed3e f420 39bd
00000010: b703 153e 7a56 54be 7126 d33d 8af0 e03e
00000020: c958 c73d 67cd a93e 0676 d43d 7515 f63e
00000030: 8fec 9b3d 6e21 753e 9d91 9e3e a37f 62bd

decoder.net.4.weight f4 [2, 16]
-0.4080708 0.30772308 0.40589204 -0.19976428 0.110806696 0.59066576 0.10919033 -0.34949267
0.052074697 -0.011930119 -0.5792237 0.06010143 0.08975935 0.6249106 0.18767521 -0.22599117
-0.2362059 0.33685088 -0.3180914 -0.36261576 0.027262485 0.22495434 -0.39115265 0.79294425
0.2264013 -0.5262789 -0.06507684 0.5006786 -0.28340596 0.002410869 0.26489967 -0.3804769
00000000: a8ee d0be e18d 9d3e 15d1 cf3e 028f 4cbe
00000010: 9fee e23d df35 173f 2e9f df3d b4f0 b2be
00000020: 474c 553d 8c76 43bc 0148 14bf eb2c 763d
00000030: c0d3 b73d 24fa 1f3f ee2d 403e 3b6a 67be
00000040: f6df 71be b877 ac3e e0dc a2be c6a8 b9be
00000050: 9355 df3c 6e5a 663e 2945 c8be 65fe 4a3f
00000060: bed5 673e 37ba 06bf 0247 85bd 792c 003f
00000070: 961a 91be acff 1d3b eea0 873e decd c2be

decoder.net.4.bias f4 [2]
0.48911443 0.20106453
00000000: 356d fa3e dce3 4d3e

prior.t.0.0.weight f4 [16, 1]
0.5974735 -0.69067085 1.0554453 -0.46298727 1.1340522 -0.8623083 -0.83144003 0.62052894
0.20611387 0.2086292 -0.4715323 -0.39251438 -0.25551125 -0.6624496 0.1770822 0.14003605
00000000: 06f4 183f cecf 30bf d518 873f ab0c edbe
00000010: 9f28 913f 3dc0 5cbf 41d9 54bf fcda 1e3f
00000020: 840f 533e e5a2 553e ae6c f1be a5f7 c8be
00000030: 5fd2 82be 4c96 29bf 0955 353e 9c65 0f3e

prior.t.0.0.bias f4 [16]
0.40557635 0.39581165 1.0330632 0.17223305 -0.0941013 -0.3707599 -0.6304226 -0.4904233
-0.41053158 -0.41239804 0.1744345 -0.39009824 1.1073446 -1.2239796 0.23571104 1.1399086
00000000: b4a7 cf3e d3a7 ca3e 6a3b 843f dc5d 303e
00000010: 2fb8 c0bd 3ed4 bdbe 6063 21bf c318 fbbe
00000020: 3231 d2be d625 d3be f59e 323e f5ba c7be
00000030: 78bd 8d3f 5dab 9cbf 3c5e 713e 86e8 913f

prior.t.0.2.weight f4 [16, 16]
0.19394659 -0.1282776 -0.023743313 0.039703645 -0.14633992 -0.09422439 0.055308394 -0.12977335
0.15664642 0.4663927 -0.08024986 0.1752128 -0.08481905 0.064771764 0.16220042 -0.14813398
0.12630871 0.0058335136 -0.05970997 0.01825747 0.009364038 -0.10304208 0.05024447 0.088016815
0.36302122 0.41639712 0.08336588 -0.093777336 -0.3958666 0.106340915 0.0033708906 -0.15384336
-0.5251556 0.14467223 -0.17202024 0.23190588 -0.23906359 0.08512464 0.07292344 -0.06304457
0.14880855 0.2264257 0.09806466 -0.025000172 0.12320356 0.08394577 -0.34481636 0.019920094
0.20752093 -0.14353502 0.15631248 -0.03706695 0.20226993 -0.15736677 0.15252048 0.10341493
-0.5316554 -0.6742509 0.32704362 -0.11061367 0.23866868 -0.120138034 0.12292533 0.27126896
-0.0613092 -0.030009782 -0.39988452 0.02328803 -0.02317826 0.0014735144 0.13446073 0.43082422
0.43728557 0.5514516 -0.07292668 -0.3197536 -0.25313607 0.12984888 -0.01235738 0.023926038
0.24824102 -0.3527981 0.19766079 0.06425755 -0.09529747 0.101281784 -0.053169325 0.021796253
-0.7417777 -0.50514704 -0.38352475 -0.14485942 0.3069631 -0.043665916 0.37715456 0.4669576
0.21093282 0.21563983 0.09608501 0.0083560785 -0.14511438 -0.11222699 -0.07113285 0.06761704
0.66432774 0.55019766 0.0954801 -0.016266255 0.1047028 0.0019634685 -0.2909337 -0.28378773
-0.12550947 0.099423386 -0.09437131 -0.19276977 -0.30692324 0.14547251 0.12779658 -0.2821978
0.09444798 -0.29688033 0.26325446 0.011049862 0.2853221 -0.32861108 -0.47305432 0.14862733
0.24565652 0.09530553 0.1161541 -0.2633775 0.2537301 -0.2507176 0.06816445 0.0838463
0.5125952 0.7969184 -0.17165188 -0.008532445 -0.8266561 -0.19902433 0.03130422 -0.28310373
-0.7310596 0.020548051 -0.45402962 -0.089292124 -0.19459091 0.14745937 0.0181036 -0.3685787
0.092753954 0.041363478 -0.048733044 -0.0018101579 0.36921012 -0.32290664 -0.56996274 0.17531152
0.26699862 -0.24385989 0.10567396 0.08778534 0.1768411 0.021185385 0.23769604 0.30938822
0.044987988 0.16044621 0.033756983 0.22857615 -0.546162 0.14946386 0.005910552 -0.32346377
0.20913932 -0.07404586 0.23278631 -0.09568781 -0.10159734 0.032821238 -0.08743622 0.016090197
-0.5780946 -0.47311607 0.11910956 -0.0948371 0.43110386 -0.010202937 0.24651745 0.17462084
0.11092683 0.03136019 0.14313212 -0.11342621 0.04547394 -0.10210881 -0.025689136 -0.0013174537
-0.7796472 -0.8113789 0.014472727 -0.040545307 0.27995208 0.05291008 0.29602566 0.04646578
-0.049266312 0.13654393 0.16778676 -0.025705552 -0.14935407 0.035775837 0.088878155 -0.089291774
0.0086839795 0.5464334 -0.018324094 -0.3166616 -0.19883594 0.01314156 -0.13854332 0.12093869
0.17169538 -0.020922448 -0.016879376 -0.12856276 -0.07285902 0.06345464 -0.14619309 -0.20930913
-0.5524037 -0.34580588 -0.22523604 0.31165385 -0.004078428 -0.04954059 0.10801288 0.066135526
-0.33357206 0.17743467 -0.49475017 0.22305636 -0.42824066 -0.11387038 0.12914637 -0.011896607
-0.16289182 0.042157963 0.28846538 0.029386759 0.28945217 -0.16724083 -0.4258803 0.27478856
00000000: ef99 463e 345b 03be 5681 c2bc 4aa0 223d
00000010: 22da 15be b8f8 c0bd 0e8b 623d 4ee3 04be
00000020: eb67 203e 06cb ee3e 0a5a a4bd fc6a 333e
00000030: 9cb5 adbd 0fa7 843d de17 263e 6fb0 17be
00000040: 1257 013e 0f27 bf3b 7192 74bd b190 953c
00000050: 9f6b 193c ba07 d3bd 25cd 4d3d 2942 b43d
00000060: ebdd b93e 0132 d53e bbbb aa3d 550e c0bd
00000070: 07af cabe 44c9 d93d 29ea 5c3b 1d89 1dbe
00000080: 9970 06bf f524 143e 1326 30be bc78 6d3e
00000090: 16cd 74be d455 ae3d e258 953d 831d 81bd
000000a0: 4561 183e 24dc 673e 20d6 c83d 29cd ccbc
000000b0: 2652 fc3d c3eb ab3d c58b b0be 772f a33c
000000c0: 5e80 543e d8fa 12be 6110 203e 84d3 17bd
000000d0: d91f 4f3e c124 21be 542e 1c3e 35cb d33d
000000e0: 911a 08bf b59b 2cbf 4372 a73e 6b89 e2bd
000000f0: 9065 743e ee0a f6bd 47c0 fb3d c4e3 8a3e
00000100: 5b1f 7bbd 13d7 f5bc aabd ccbe 8ac6 be3c
00000110: 56e0 bdbc f022 c13a 13b0 093e fe94 dc3e
00000120: e5e3 df3e ef2b 0d3f 955a 95bd beb6 a3be
00000130: 0d9b 81be 1bf7 043e 9c76 4abc 8a00 c43c
00000140: e532 7e3e f4a1 b4be 9767 4a3e 7699 833d
00000150: 522b c3bd d36c cf3d 14c8 59bd 0e8e b23c
00000160: 25e5 3dbf 5151 01bf 5b5d c4be 0756 14be
00000170: 442a 9d3e 08db 32bd 671a c13e 1115 ef3e
00000180: c6fe 573e b0d0 5c3e 38c8 c43d efe7 083c
00000190: dd98 14be 44d7 e5bd 1aae 91bd cd7a 8a3d
000001a0: 6211 2a3f c1d9 0c3f 128b c33d cf40 85bc
000001b0: 6c6e d63d 89ad 003b 43f5 94be a04c 91be
000001c0: 8e85 00be 7d9e cb3d bf45 c1bd 7065 45be
000001d0: 0b25 9dbe bff6 143e 1bdd 023e 3b7c 90be
000001e0: f16d c13d b300 98be 4ac9 863e 7b0a 353c
000001f0: bd15 923e b63f a8be 2d34 f2be c331 183e
00000200: 628d 7b3e 8c2f c33d 33e2 ed3d 6ad9 86be
00000210: e9e8 813e 0f5e 80be ce99 8b3d 9cb7 ab3d
00000220: 7039 033f d802 4c3f 83c5 2fbe abcb 0bbc
00000230: bc9f 53bf 09cd 4bbe db38 003d f9f2 90be
00000240: b926 3bbf 6354 a83c 9276 e8be cade b6bd
00000250: d742 47be 97ff 163e 004e 943c 59b6 bcbe
00000260: c9f5 bd3d c06c 293d 4d9c 47bd d242 edba
00000270: 1c09 bd3e 0554 a5be 14e9 11bf dd84 333e
00000280: 0bb4 883e 68b6 79be 976b d83d cdc8 b33d
00000290: d515 353e f98c ad3c 9766 733e 2268 9e3e
000002a0: 5345 383d 034c 243e c344 0a3d de0f 6a3e
000002b0: 46d1 0bbf 0e0d 193e 4ead c13b 0b9d a5be
000002c0: 9e28 563e 5ba5 97bd 895f 6e3e f8f7 c3bd
000002d0: 4412 d0bd 906f 063d c311 b3bd 97cf 833c
000002e0: 02fe 13bf 453c f2be b7ef f33d f439 c2bd
000002f0: a5b9 dc3e 382a 27bc 126f 7c3e cecf 323e
00000300: 9b2d e33d 8b73 003d 3a91 123e 004c e8bd
00000310: e242 3a3d 6c1e d1bd 0672 d2bc 69ae acba
00000320: f596 47bf 87b6 4fbf 041f 6d3c d612 26bd
00000330: e155 8f3e 3db8 583d ad90 973e e752 3e3d
00000340: 79cb 49bd 2cd2 0b3e 4bd0 2b3e 7394 d2bc
00000350: 46f0 18be af89 123d c005 b63d 9bde b6bd
00000360: 4047 0e3c 0fe3 0b3f 691c 96bc 7821 a2be
00000370: a69b 4bbe b34f 573c 4dde 0dbe b4ae f73d
00000380: ead0 2f3e 8e65 abbc 9e46 8abc f5a5 03be
00000390: 1c37 95bd 82f4 813d a4b3 15be 2255 56be
000003a0: 546a 0dbf 780d b1be 47a4 66be 1891 9f3e
000003b0: 55a4 85bb 13eb 4abd db35 dd3d 1072 873d
000003c0: f5c9 aabe 6fb1 353e e54f fdbe e368 643e
000003d0: 5c42 dbbe e034 e9bd f23e 043e fce9 42bc
000003e0: 1dcd 26be d4ad 2c3d bcb1 933e 80bc f03c
000003f0: 1333 943e 2e41 2bbe fc0c dabe 16b1 8c3e

prior.t.0.2.bias f4 [16]
0.03124983 0.16152358 0.027141482 0.09365669 -0.118534036 -0.010099533 -0.020380689 0.18518123
-0.19881624 0.11474733 -0.030428132 0.12790407 0.4919813 -0.30305612 -0.18915796 0.00919334
00000000: a5ff ff3c 7066 253e d057 de3c 14cf bf3d
00000010: f9c1 f2bd 8378 25bc 67f5 a6bc 26a0 3d3e
00000020: 7c96 4bbe a600 eb3d 6b44 f9bc 49f9 023e
00000030: f9e4 fb3e 2c2a 9bbe a0b2 41be aa9f 163c

prior.t.0.4.weight f4 [1, 16]
0.061648592 0.08361013 0.13432445 -0.27604777 0.21057738 -0.23616925 0.06609148 0.21445133
0.4537095 0.2050409 0.2232522 -0.3385572 -0.31442425 0.069985546 -0.10743973 0.2689127
00000000: 3c83 7c3d ca3b ab3d 598c 093e 2256 8dbe
00000010: 99a1 573e 5ad6 71be f85a 873d 2199 5b3e
00000020: 9d4c e83e 3ef6 513e 3a9c 643e 5f57 adbe
00000030: 37fc a0be 9554 8f3d 5c09 dcbd edae 893e

prior.t.1.0.weight f4 [16, 1]
0.045258127 0.44326612 -0.9984128 0.17676955 0.15142862 -0.10432223 -0.60507417 0.80963165
0.7708095 -0.79654825 0.57827467 -1.0464331 -0.8763953 0.4345789 0.103566855 -0.7727664
00000000: 9660 393d c7f3 e23e fb97 7fbf 1403 353e
00000010: 1b10 1b3e e5a6 d5bd 24e6 1abf 0544 4f3f
00000020: c553 453f 96ea 4bbf cf09 143f 85f1 85bf
00000030: 715b 60bf 2081 de3e dc1a d43d 05d4 45bf

prior.t.1.0.bias f4 [16]
-1.1534166 0.0051613683 0.06873591 -1.2514713 -1.1088467 0.46067023 -0.94663346 -0.6892315
-0.08174115 -0.041062728 -0.6381158 -0.1476269 -0.03362355 -0.6945111 -0.29375786 -0.2615238
00000000: 28a3 93bf b220 a93b 6ac5 8c3d 3630 a0bf
00000010: b0ee 8dbf f8dc eb3e 9256 72bf 7a71 30bf
00000020: e767 a7bd 6431 28bd 8f5b 23bf 822b 17be
00000030: d9b8 09bd 7bcb 31bf 6e67 96be 73e6 85be

prior.t.1.2.weight f4 [16, 16]
-0.76639754 -0.03890727 0.0476096 -0.79050565 -0.46996316 0.5792013 -0.13797836 -0.025547016
0.054379463 -0.25403452 -0.096052974 -0.34060392 -0.27906084 -0.14408857 -0.42278025 -0.68916655
-0.53148943 -0.13454242 -0.075201936 -0.38476974 -0.62754375 0.6547992 -0.4046137 0.10601236
-0.33473822 -0.28870544 -0.05553791 -0.1127801 -0.19646205 -0.13075793 -0.2686284 -0.4158808
-0.24431376 -0.6355258 -0.111072265 -0.47653177 -0.14316553 0.4128287 -0.24422598 0.018740783
-0.1849415 -0.35407573 -0.23525651 -0.42728284 0.02971403 -0.24125843 -0.52578 -0.44903255
0.1602861 0.1683064 -0.053380948 0.1932577 0.21527337 -0.29761034 0.04667222 0.30567616
-0.14340119 -0.21596742 -0.08146224 -0.08822212 0.13802002 0.35968426 0.0823204 -0.04169229
-0.0017014852 0.19188958 0.26808348 -0.17542224 -0.39076263 0.3498452 -0.85774165 0.18775575
0.014343815 0.18305059 0.32256466 0.2762573 -0.15335096 -0.08813372 -0.30690092 -0.15419526
0.3542198 0.14162828 -0.1150641 -0.021047994 -0.061941598 0.092305616 -0.35707283 -0.1616417
-0.27423164 0.1674165 0.2746895 -0.09346371 0.11972886 0.341125 0.083876126 0.004458334
-0.030038793 -0.38171434 0.16184738 -0.25839758 0.053842947 0.26138616 0.3828665 0.06057974
-0.008515196 -0.110028535 -0.21186288 0.08181361 -0.19181496 -0.07453815 -0.05259762 0.09919186
-0.29794097 -0.31259862 0.19199924 0.0005563416 -0.31885615 -0.04970466 -0.95608884 -0.31145856
-0.32247266 0.2848808 -0.19485329 0.18760018 0.316309 -0.043524597 -0.32003757 0.13186233
-0.2743024 -0.116985895 -0.25612617 -0.2285489 -0.17874563 0.10242041 -0.13595672 0.12807828
-0.2563471 -0.17682728 -0.049170505 -0.30814892 0.08660877 0.046213634 -0.18528992 -0.44272837
0.36909157 -0.28781632 -0.06926261 0.08656687 0.114203274 0.11847678 0.9846461 0.23342402
0.13299781 -0.1497009 0.093297586 0.08510365 0.111332804 0.22291812 0.020088729 -0.025670521
-0.19425413 -0.789243 -0.06453605 -0.2730524 -0.2668624 0.38011977 -0.08322826 -0.17621227
-0.5295026 -0.06269081 -0.22712894 -0.24150044 -0.2292658 -0.2524801 -0.4925728 -0.34835255
0.26131323 0.31045705 0.1580491 -0.13005714 -0.22504759 -0.12367499 -0.57390296 0.19688988
-0.17923945 0.04112201 -0.104916826 0.093083635 0.21276627 -0.1688249 -0.30867484 0.167098
0.0143402135 -0.14341415 -0.01380535 -0.016230041 -0.11695226 -0.34703422 0.7837285 0.028945638
0.04357501 -0.12547359 -0.19310442 -0.09716648 -0.27859342 0.12679727 0.2232622 -0.112644605
-0.04332939 0.31958732 -0.13922904 0.07040569 -0.0015201799 -0.07630896 0.054615207 -0.023825936
0.13935311 -0.0486246 -0.023432365 0.25338805 -0.17594971 0.122952886 0.094975196 -0.076555066
0.05072646 0.30480698 0.30328092 -0.23329796 -0.03357685 0.12728685 -0.88677615 0.11385689
0.096330315 0.21791574 0.316276 -0.108953655 0.21097673 0.14536236 -0.100369826 0.1270852
-0.103450544 -0.045854285 0.2704471 -0.21505404 0.057603072 -0.070309184 -0.6393798 -0.014908833
-0.041505482 0.09741756 0.15828739 0.020517088 0.13840036 0.334265 -0.31335545 0.004459867
00000000: a132 44bf 3b5d 1fbd 4902 433d 945e 4abf
00000010: 039f f0be 8946 143f 334a 0dbe fa47 d1bc
00000020: 00bd 5e3d d010 82be 6cb7 c4bd a363 aebe
00000030: 10e1 8ebe f48b 13be a776 d8be 386d 30bf
00000040: b10f 08bf 7dc5 09be 7903 9abd 8a00 c5be
00000050: b5a6 20bf eca0 273f 8729 cfbe 021d d93d
00000060: cf62 abbe 33d1 93be b87b 63bd 41f9 e6bd
00000070: 592d 49be 68e5 05be a989 89be 54ee d4be
00000080: 632d 7abe d2b1 22bf db79 e3bd f9fb f3be
00000090: fc99 12be 495e d33e 6016 7abe 4586 993c
000000a0: 4e61 3dbe 6a49 b5be 15e7 70be d1c4 dabe
000000b0: d66a f33c 730c 77be 8599 06bf 98e7 e5be
000000c0: 0a22 243e 8358 2c3e fba5 5abd 59e5 453e
000000d0: 9f70 5c3e 6260 98be 5f2b 3f3d 9681 9c3e
000000e0: c3d7 12be 9026 5dbe add5 a6bd cdad b4bd
000000f0: 1f55 0d3e 8928 b83e 9997 a83d 89c5 2abd
00000100: 5f04 dfba b47e 443e 3d42 893e e3a1 33be
00000110: 0a12 c8be e91e b33e f594 5bbf 0b43 403e
00000120: 5202 6b3c 9d71 3b3e 3227 a53e 9971 8d3e
00000130: 0908 1dbe 747f b4bd 1e22 9dbe 5de5 1dbe
00000140: 4c5c b53e 0107 113e baa6 ebbd d86c acbc
00000150: 79b6 7dbd ba0a bd3d 40d2 b6be 6785 25be
00000160: 1768 8cbe 3b6f 2b3e 1aa4 8c3e e769 bfbd
00000170: 6834 f53d f0a7 ae3e 3fc7 ab3d 3717 923b
00000180: ea13 f6bc 1070 c3be 52bb 253e b04c 84be
00000190: 6c8a 5c3d 68d4 853e 1407 c43e 7622 783d
000001a0: 5283 0bbc a456 e1bd 95f2 58be e58d a73d
000001b0: 246b 44be 75a7 98bd 9a70 57bd 1a25 cb3d
000001c0: b88b 98be ed0c a0be 739b 443e 74d7 113a
000001d0: 1d41 a3be 1d97 4bbd 3dc2 74bf 7f77 9fbe
000001e0: 231b a5be e5db 913e 9f87 47be 431a 403e
000001f0: 41f3 a13e d946 32bd f7db a3be eb06 073e
00000200: 5d71 8cbe 4d96 efbd f822 83be b908 6abe
00000210: 1809 37be cbc1 d13d 3d38 0bbe f426 033e
00000220: ed3f 83be 3612 35be 0367 49bd b2c5 9dbe
00000230: f05f b13d 824a 3d3d a4bc 3dbe 4bad e2be
00000240: 92f9 bc3e a95c 93be 8ed9 8dbd f949 b13d
00000250: 68e3 e93d f4a3 f23d c411 7c3f b506 6f3e
00000260: 9430 083e 314b 19be ce12 bf3d d34a ae3d
00000270: 7402 e43d a644 643e 1e91 a43c fc4a d2bc
00000280: 8eea 46be d40b 4abf 7a2b 84bd 86cd 8bbe
00000290: 30a2 88be 0f9f c23e 9473 aabd fd70 34be
000002a0: 7b8d 07bf 0a64 80bd 7d94 68be e44b 77be
000002b0: a7c4 6abe 1245 81be 8132 fcbe 445b b2be
000002c0: d9ca 853e 3af4 9e3e a0d7 213e b32d 05be
000002d0: e072 66be 5049 fdbd 4eeb 12bf 809d 493e
000002e0: 8c8a 37be 8e6f 283d a2de d6bd a2a2 be3d
000002f0: 67df 593e 6fe0 2cbe a10a 9ebe bd1b 2b3e
00000300: 37f3 6a3c 29db 12be d62f 62bc ddf4 84bc
00000310: ab84 efbd 78ae b1be 6ea2 483f 671f ed3c
00000320: b67b 323d 267c 00be 2abd 45be 38ff c6bd
00000330: cca3 8ebe 25d7 013e d99e 643e 37b2 e6bd
00000340: 297a 31bd f3a0 a33e 0f92 0ebe dc30 903d
00000350: c640 c7ba df47 9cbd 32b4 5f3d 9c2e c3bc
00000360: 95b2 0e3e 972a 47bd 3bf5 bfbc 14bc 813e
00000370: 292c 34be b9ce fb3d 5b82 c23d e7c8 9cbd
00000380: 8cc6 4f3d a90f 9c3e a347 9b3e a9e5 6ebe
00000390: e187 09bd 7c57 023e c303 63bf cd2d e93d
000003a0: d448 c53d 4e25 5f3e eeee a13e 1823 dfbd
000003b0: 490a 583e dfd9 143e b28e cdbd 9f22 023e
000003c0: e1dd d3bd b4d1 3bbd 0b78 8a3e 2037 5cbe
000003d0: 33f1 6b3d 43fe 8fbd 65ae 23bf 2e44 74bc
000003e0: a701 2abd dc82 c73d 1716 223e 7413 a83c
000003f0: d3b8 0d3e c824 ab3e 2070 a0be 1324 923b

prior.t.1.2.bias f4 [16]
0.47568583 0.6509723 0.54563767 -0.17308767 0.05298307 -0.26864538 0.26555705 0.073528
0.59751403 0.01006627 0.62939703 0.1705087 -0.1441569 0.031744696 0.07854161 0.15857887
00000000: 188d f33e 1fa6 263f e9ae 0b3f e53d 31be
00000010: c704 593d e38b 89be 18f7 873e d995 963d
00000020: aef6 183f ffec 243c 2a20 213f d599 2e3e
00000030: de9d 13be ba06 023d 6cda a03d 8062 223e

prior.t.1.4.weight f4 [1, 16]
-0.6047914 -0.5477128 -0.72205985 -0.35121176 0.15502875 0.032262832 -0.05667934 0.3207069
-0.5735182 -0.15450734 -0.8478664 0.0526724 -0.07854353 0.09755386 0.25878254 0.19843256
00000000: 9cd3 1abf e836 0cbf ead8 38bf 07d2 b3be
00000010: dbbf 1e3e 0826 043d 9828 68bd b233 a43e
00000020: 17d2 12bf 2c37 1ebe c60d 59bf 04bf 573d
00000030: 6edb a0bd 51ca c73d 257f 843e e831 4b3e

prior.t.2.0.weight f4 [16, 1]
0.72772384 -1.0643177 -0.69495106 0.45733184 -0.2600141 -0.9411819 -0.6035154 -0.8260634
-1.0837517 0.59216905 1.0782485 0.67336226 -0.5701608 -1.041755 -0.8466478 -0.021195812
00000000: 1c4c 3a3f 903b 88bf 50e8 31bf 6627 ea3e
00000010: 9120 85be 4cf1 70bf fc7f 1abf e478 53bf
00000020: 60b8 8abf 6498 173f 0c04 8a3f 7861 2c3f
00000030: 0ff6 11bf 3a58 85bf e9bd 58bf d7a2 adbc

prior.t.2.0.bias f4 [16]
0.81054056 0.15222917 -0.21456382 -0.5864362 0.11048338 -0.9247385 -0.67277604 1.1726927
-0.08693288 -0.18205689 -0.4633972 -0.9136149 0.23508166 0.5001927 0.22108309 -0.25230125
00000000: 967f 4f3f f7e1 1b3e 9eb6 5bbe af20 16bf
00000010: 1c45 e23d aabb 6cbf 0d3b 2cbf cb1a 963f
00000020: de09 b2bd 1f6d 3abe 6642 edbe abe2 69bf
00000030: 3fb9 703e a10c 003f 9b63 623e a12d 81be

prior.t.2.2.weight f4 [16, 16]
-0.09756626 -0.19978714 0.21269059 0.81545097 -0.03694844 0.047796756 0.27174416 -0.17444402
-0.0131231565 -0.33033454 -0.4159261 0.77241534 -0.094577275 -0.008409238 -0.039255545 -0.21664524
-0.21378542 -0.08737914 0.25200582 -0.06237866 0.51823825 -0.115460776 -0.04335314 0.24893019
0.3741743 -0.31017846 -0.18943083 -0.44054124 -0.05053303 0.0681556 0.35866946 -0.005305686
0.3379086 0.24664326 0.057943918 -0.8803808 0.40670925 0.124539636 0.008073123 -0.10197838
0.25873542 0.2689246 0.4815923 -0.626183 0.21610051 -0.16733268 -0.061528794 0.07330148
-0.03762369 -0.19480865 0.21539515 -0.26243582 0.05849554 -0.20701364 0.093443036 -0.042840563
-0.091677986 0.17835619 -0.040095087 0.1767812 -0.014808464 0.23224628 0.07844929 -0.04107657
0.15540993 -0.31563932 -0.19464262 -1.0559484 -0.023514442 -0.18947631 -0.27681646 -0.6191007
0.076123945 0.5856024 0.41419977 -0.970633 0.09109017 0.16540775 -0.31252503 -0.24773763
-0.05862318 0.018884527 0.3704618 0.92042977 0.23282889 0.3362042 0.32749707 -0.3299767
0.028720928 0.24390641 0.20447686 0.94814974 0.30024046 -0.15252563 0.18643016 0.53472453
0.044189356 -0.010416748 -0.16267703 -0.33240214 -0.19946155 0.0860289 -0.030178104 0.32439384
0.069660045 -0.12780985 -0.56268716 -0.04500366 -0.4408042 -0.348981 -0.44921806 -0.41109964
0.29136416 -0.085721515 -0.27454993 -1.4817381 -0.060308937 -0.3912067 -0.34556186 -0.69902486
-0.28729978 0.38372695 0.08539079 -1.4730343 -0.010003687 -0.29629523 -0.2863355 -0.280472
0.29525968 -0.6385718 -0.21419483 -0.023498619 -0.40635934 0.020318693 -0.16524082 0.50237364
-0.2498891 -0.30249158 -0.8143949 -0.02955522 -0.4820029 -0.3625522 -0.45946136 -0.22135112
-0.010838997 0.089152366 0.34277245 -0.74533474 0.049820166 -0.060459632 0.047342204 0.0022507615
-0.025082668 0.48786652 0.5055878 -0.8476389 0.15754187 0.11938165 0.18330297 -0.002188979
-0.20131968 0.032310177 0.051753577 0.42199558 -0.20276396 0.2134834 -0.043038167 0.04363381
0.12921463 -0.28526923 -0.53141844 0.42243406 -0.04083061 -0.26194644 -0.19783899 0.27991316
0.29428467 0.15582955 0.17091799 0.10707207 -0.096299656 0.25090215 0.040035453 0.026033815
0.19634067 -0.21790177 -0.5768686 -0.17692772 0.13444634 0.20484081 0.19929479 -0.05882696
0.16230309 -0.7066305 -0.2042571 0.0052566077 -0.43929696 0.10811497 0.00011536139 0.26807514
-0.4112837 -0.5353251 -0.46750745 0.3224103 -0.8701058 -0.6435449 -0.43983388 0.1345509
0.17181987 -0.18852818 0.008772113 0.012061597 -0.5250793 -0.37621337 -0.16667439 0.306642
-0.14591494 -0.15093115 -0.6914778 0.24017808 0.110897765 0.030066364 0.038997483 -0.14225781
-0.22580743 0.051953726 0.10124221 0.5389237 0.041719873 0.03455509 -0.08359145 -0.05433578
-0.17889914 -0.04961099 -0.40287054 0.45908093 -0.0022810062 -0.14251263 -0.09279836 0.13450986
-0.33066434 0.14490397 0.20827201 -0.15663563 0.42029405 -0.2573558 0.10168815 0.3886281
0.092491694 -0.284105 -0.31864092 -0.19170927 0.15462218 -0.0940145 0.18975909 -0.21128446
00000000: d2d0 c7bd 0095 4cbe 90cb 593e 65c1 503f
00000010: 3f57 17bd 88c6 433d 0d22 8b3e 74a1 32be
00000020: 8202 57bc 9c21 a9be 44f4 d4be 03bd 453f
00000030: bbb1 c1bd e7c6 09bc 6cca 20bd 40d8 5dbe
00000040: 91ea 5abe d6f3 b2bd e806 813e c480 7fbd
00000050: 43ab 043f b376 ecbd 1093 31bd 8ee7 7e3e
00000060: c693 bf3e b6cf 9ebe 28fa 41be 9f8e e1be
00000070: b9fb 4ebd 2a95 8b3d 86a3 b73e 52db adbb
00000080: 5b02 ad3e 0d90 7c3e 9a56 6d3d a360 61bf
00000090: 323c d03e a30e ff3d 2245 043c 0ada d0bd
000000a0: f878 843e 7cb0 893e 4493 f63e 874d 20bf
000000b0: 7449 5d3e 4259 2bbe 9e05 7cbd 161f 963d
000000c0: 4c1b 1abd eb7b 47be 8c90 5c3e fd5d 86be
000000d0: 0599 6f3d 62fb 53be 105f bf3d 9679 2fbd
000000e0: abc1 bbbd 01a3 363e bf3a 24bd 2206 353e
000000f0: 339f 72bc f8d1 6d3e 05aa a03d e83f 28bd
00000100: c823 1f3e 7a9b a1be 6550 47be 5129 87bf
00000110: 5ca1 c0bc 1406 42be e3ba 8dbe 627d 1ebf
00000120: dfe6 9b3d 0aea 153f fe11 d43e 677b 78bf
00000130: 7c8d ba3d a660 293e 4803 a0be efae 7dbe
00000140: dc1e 70bd b9b3 9a3c 2bad bd3e 49a1 6b3f
00000150: b26a 6e3e f522 ac3e b2ad a73e b5f2 a8be
00000160: 2748 eb3c 9ac2 793e 6262 513e f1b9 723f
00000170: 1eb9 993e ae2f 1cbe 8ce7 3e3e b5e3 083f
00000180: e6ff 343d 02ab 2abc cf94 26be 9d30 aabe
00000190: a63f 4cbe ec2f b03d 1238 f7bc f316 a63e
000001a0: eda9 8e3d 96e0 02be 440c 10bf c255 38bd
000001b0: 17b1 e1be a3ad b2be e9ff e5be a77b d2be
000001c0: af2d 953e c38e afbd cf91 8cbe 98a9 bdbf
000001d0: 8106 77bd 3f4c c8be 7ced b0be 4bf3 32bf
000001e0: f518 93be dc77 c43e 5ee1 ae3d 638c bcbf
000001f0: 81e6 23bc 02b4 97be 919a 92be 079a 8fbe
00000200: 472c 973e 7179 23bf e455 5bbe 2d80 c0bc
00000210: 550e d0be 6373 a63c e434 29be 8f9b 003f
00000220: eee2 7fbe 2de0 9abe 2f7c 50bf ca1d f2bc
00000230: 16c9 f6be 71a0 b9be 853e ebbe dea9 62be
00000240: 0c96 31bc 8495 b63d df7f af3e 42ce 3ebf
00000250: 3b10 4c3d 85a4 77bd e6e9 413d 8381 133b
00000260: 2b7a cdbc a4c9 f93e 346e 013f ddfe 58bf
00000270: a852 213e 5e7e f43d c6b3 3b3e f974 0fbb
00000280: bf26 4ebe ad57 043d 8ffb 533d ce0f d83e
00000290: 5ba1 4fbe 649b 5a3e ca48 30bd 5eb9 323d
000002a0: d750 043e cf0e 92be 0a0b 08bf 4749 d83e
000002b0: ff3d 27bd d81d 86be 4e96 4abe c750 8f3e
000002c0: 7bac 963e c891 1f3e 2005 2f3e 9a48 db3d
000002d0: c138 c5bd 3f76 803e 37fc 233d de44 d53c
000002e0: 870d 493e a421 5fbe a9ad 13bf 8a2c 35be
000002f0: 4dac 093e cac1 513e ef13 4c3e 8af4 70bd
00000300: c832 263e bde5 34bf c628 51be 9f3f ac3b
00000310: 88eb e0be 626b dd3d 2dee f138 2541 893e
00000320: c793 d2be 110b 09bf 235d efbe f612 a53e
00000330: 41bf 5ebf 5cbf 24bf e831 e1be b6c7 093e
00000340: 8cf1 2f3e 880d 41be e9b8 0f3c 019e 453c
00000350: 996b 06bf 0a9f c0be b1ac 2abe 2e00 9d3e
00000360: ba6a 15be b28d 1abe b004 31bf 3ef1 753e
00000370: 5e1e e33d bc4d f63c d3bb 1f3d 08ac 11be
00000380: 103a 67be 6ecd 543d 1358 cf3d e7f6 093f
00000390: 75e2 2a3d a389 0d3d fe31 abbd 328f 5ebd
000003a0: 5631 37be e534 4bbd 0c45 cebe a80c eb3e
000003b0: ef7c 15bb d5ee 11be 110d bebd f4bc 093e
000003c0: d64c a9be b561 143e 4245 553e 1765 20be
000003d0: c830 d73e 24c4 83be e041 d03d 43fa c63e
000003e0: 496c bd3d 3676 91be e724 a3be 6f4f 44be
000003f0: 4755 1e3e ad8a c0bd 3550 423e f45a 58be

prior.t.2.2.bias f4 [16]
-0.10980552 0.0013431215 0.20461884 -0.15270188 0.12711953 -0.20686965 0.3924919 0.20082814
0.21543793 0.043758713 0.086446136 0.106039934 0.3182481 0.29629853 0.19291854 -0.02977793
00000000: b7e1 e0bd ae0b b03a 9a87 513e e25d 1cbe
00000010: 9f2b 023e a3d5 53be b3f4 c83e e4a5 4d3e
00000020: c39b 5c3e 563c 333d ac0a b13d 772b d93d
00000030: 6af1 a23e 71b4 973e 708c 453e d8f0 f3bc

prior.t.2.4.weight f4 [1, 16]
0.21240306 -0.2956632 -0.14396411 0.00098971 -0.7032832 0.51326346 0.948172 -1.0593679
1.0937209 -0.33292845 0.12996323 0.24414715 0.7379326 0.524489 0.0899446 -0.12487072
00000000: 3080 593e 2b61 97be 546b 13be 28b9 813a
00000010: 5e0a 34bf 3c65 033f 66bb 723f 5e99 87bf
00000020: 0cff 8b3f 9975 aabe 1515 053e b601 7a3e
00000030: 27e9 3c3f e944 063f e034 b83d 38bc ffbd

prior.s.0.0.weight f4 [16, 1]
-0.33573252 0.9577202 0.5817432 -0.579054 0.9811159 0.18267626 -0.115869686 -0.16341104
-0.3910932 0.15548745 -0.5701422 -1.1202666 -0.37764844 -0.28558922 0.58515525 0.826417
00000000: 22e5 abbe 272d 753f 1fed 143f e23c 14bf
00000010: 692a 7b3f 7c0f 3b3e 164d edbd 3955 27be
00000020: 5e3d c8be 1a38 1f3e d7f4 11bf e564 8fbf
00000030: 235b c1be c038 92be bccc 153f 1190 533f

prior.s.0.0.bias f4 [16]
-0.7957786 0.031764325 -0.3354307 -0.848476 -0.16443944 -0.5306859 0.65911704 -0.6346199
0.17538244 -0.62508965 -0.32654914 0.82251525 -0.7376327 0.008554308 1.032691 0.4246101
00000000: 25b8 4bbf 4f1b 023d 93bd abbe b935 59bf
00000010: d062 28be 08db 07bf e5bb 283f 7376 22bf
00000020: 7497 333e e005 20bf 7331 a7be 5c90 523f
00000030: 7fd5 3cbf 5e27 0c3c 382f 843f 7f66 d93e

prior.s.0.2.weight f4 [16, 16]
-0.37443706 -0.29766256 -0.19442818 -0.058041472 -0.011512403 -0.09434173 0.21007143 -0.13477047
0.028546993 0.062466733 0.28515473 0.33663848 -0.08512221 0.11733754 -0.41425648 0.06406928
-0.36450997 -0.08704738 -0.21262158 -0.22789013 0.12167286 -0.15554 0.28183797 0.17504275
0.27069905 0.0008154468 0.0071798745 0.25236794 0.0029989774 0.20052266 -0.041232508 0.020923039
-0.21189348 -0.2634655 -0.07111518 -0.16760859 0.024383325 -0.27005273 0.010476545 -0.15307586
0.33089146 -0.28891972 0.20399506 0.23857424 0.06479565 0.17531665 0.08863326 0.14671136
-0.14920954 -0.049452018 -0.34750882 -0.037410725 -0.12063257 -0.31975865 -0.025664354 -0.251398
0.08170286 0.0025734422 0.3059499 -0.09834227 0.01996819 -0.1082647 -0.34321815 -0.26571974
-0.13774267 0.017063053 -0.22840017 -0.04092696 0.18044832 0.34608728 0.20880325 -0.13637029
-0.057248577 -0.037044656 -0.3098763 -0.11468779 -0.35201025 0.06065096 0.06380462 0.18110904
-0.08544033 0.024147997 -0.16030815 0.107785024 -0.07833953 0.20609404 0.06460218 0.32992402
0.07588366 0.07645775 0.19822837 -0.20022647 0.22878005 0.20289116 0.18297543 -0.1760137
-0.045300897 0.15151875 0.2303213 0.09703166 0.24588187 0.54168457 -0.07554254 -0.15035258
0.005053757 0.11045903 -0.25361583 -0.031479817 -0.14835732 -0.13743979 0.0077682673 0.33008695
0.026127206 0.0042663733 -0.08952001 0.15939537 -0.037180115 0.25269455 -0.3448586 -0.15254566
-0.19286369 0.18847254 0.30739114 0.15401097 0.1532339 -0.25388083 -0.18231365 0.0082020145
-0.27598682 0.2476357 0.29290357 -0.25549445 0.23105529 0.08199831 0.12798566 -0.11914604
0.09605284 -0.13036332 -0.4291887 0.029082796 -0.12642102 -0.18781422 -0.05452635 0.33194435
0.07644209 0.23295324 0.40883827 0.054224126 0.22492008 0.42438287 0.17116572 -0.08620978
-0.20854644 0.024878994 0.188235 -0.031140268 0.30212224 -0.04387461 0.18906961 0.12775593
-0.1912921 -0.38078827 -0.37880313 0.048904616 -0.027850859 -0.14169118 0.045740772 0.12800469
0.2169341 -0.2816322 -0.13508743 -0.09965794 -0.094668366 -0.06379134 -0.20368868 -0.15515836
-0.19186631 -0.074037716 0.05464643 0.18792783 -0.30464962 -0.0678681 0.08161915 0.18416011
0.012625473 -0.16125463 -0.13628809 0.25061205 -0.24563405 -0.032700974 0.0710185 0.13095737
0.09310308 -0.021565618 0.42393082 -0.08165933 0.06261469 0.68578845 -0.21653003 -0.123974584
-0.3787403 -0.07686513 -0.08337363 -0.21948177 -0.12649259 -0.15938285 -0.04540643 0.22902262
0.20525707 0.0043088445 -0.0770403 -0.22081727 -0.09913233 0.12823768 0.0063046985 0.2531561
-0.093589224 0.18233454 -0.2779294 -0.0010337092 0.22598799 -0.2572643 -0.15088369 0.15368214
-0.27533227 -0.21124637 0.019060683 0.03438581 -0.13388845 -0.12981465 0.20677008 0.13178451
0.15894888 -0.008745934 0.21018052 0.26505506 -0.22376423 0.07849261 -0.18806772 -0.17505252
0.042750213 -0.30748382 -0.032949317 -0.09100684 -0.06315404 -0.10393356 0.058460448 -0.00010761206
0.29149008 -0.24202098 -0.05462617 -0.09881484 -0.2360348 0.13233708 -0.28785607 -0.057340525
00000000: 37b6 bfbe 3a67 98be 2e18 47be e5bc 6dbd
00000010: 859e 3cbc 3d36 c1bd f71c 573e 4501 0abe
00000020: 62db e93c 1edd 7f3d cdff 913e e15b ac3e
00000030: 8e54 aebd aa4e f03d 6d19 d4be c136 833d
00000040: 0da1 babe e645 b2bd 79b9 59be 085c 69be
00000050: 9f2f f93d e145 1fbe 114d 903e 683e 333e
00000060: 1199 8a3e b5c3 553a 2745 eb3b 5f36 813e
00000070: 7e8a 443b d055 4d3e 6be3 28bd cb66 ab3c
00000080: 9bfa 58be f3e4 86be d6a4 91bd 96a1 2bbe
00000090: 8abf c73c 5a44 8abe d1a5 2b3c ebbf 1cbe
000000a0: 9b6a a93e 49ed 93be 15e4 503e ce4c 743e
000000b0: 95b3 843d 3586 333e 5b85 b53d 813b 163e
000000c0: 63ca 18be 338e 4abd adec b1be fd3b 19bd
000000d0: 350e f7bd 68b7 a3be 0d3e d2bc 3db7 80be
000000e0: d453 a73d 32a7 283b 77a5 9c3e ac67 c9bd
000000f0: 5494 a33c e2b9 ddbd 4aba afbe 6b0c 88be
00000100: 6a0c 0dbe d1c7 8b3c bce1 69be 07a3 27bd
00000110: 72c7 383e 5a32 b13e 85d0 553e a7a4 0bbe
00000120: 7c7d 6abd 23bc 17bd 1ba8 9ebe 6fe1 eabd
00000130: b03a b4be 246d 783d ffab 823d a674 393e
00000140: 57fb aebd 05d2 c53c d227 24be 65be dc3d
00000150: 7a70 a0bd 510a 533e 264e 843d cdeb a83e
00000160: e468 9b3d e195 9c3d 61fc 4a3e 2b08 4dbe
00000170: 5145 6a3e b3c2 4f3e e95d 3b3e ef3c 34be
00000180: 6f8d 39bd bb27 1b3e 59d9 6b3e 89b8 c63d
00000190: 75c8 7b3e d7ab 0a3f 0cb6 9abd 07f6 19be
000001a0: fd99 a53b 5838 e23d efd9 81be fbf0 00bd
000001b0: fbea 17be 04bd 0cbe f38c fe3b 2801 a93e
000001c0: b908 d63c efcc 8b3b 4456 b7bd 8a38 233e
000001d0: 2d4a 18bd 2e61 813e 4e91 b0be ee34 1cbe
000001e0: 0f7e 45be f2fe 403e 5f62 9d3e 0db5 1d3e
000001f0: 59e9 1c3e abfc 81be 6eb0 3abe be61 063c
00000200: 254e 8dbe 3794 7d3e 75f7 953e 2bd0 82be
00000210: c299 6c3e bbee a73d ac0e 033e d702 f4bd
00000220: 5ab7 c43d f67d 05be 9fbe dbbe 0b3f ee3c
00000230: 8374 01be 5f52 40be 0657 5fbd 9cf4 a93e
00000240: ac8d 9c3d 4b8b 6e3e 4053 d13e 1e1a 5e3d
00000250: 7351 663e b648 d93e 1146 2f3e c18e b0bd
00000260: 338d 55be 08cf cb3c adc0 403e e019 ffbc
00000270: c4af 9a3e ddb5 33bd 779b 413e 73d2 023e
00000280: 14e2 43be aef6 c2be 7cf2 c1be 3550 483d
00000290: 7c27 e4bc 7e17 11be ad5a 3b3d a913 033e
000002a0: f923 5e3e 1932 90be 5c54 0abe 7619 ccbd
000002b0: 7de1 c1bd 09a5 82bd c493 50be d5e1 1ebe
000002c0: 9a78 44be 16a1 97bd efd4 5f3d 2770 403e
000002d0: 09fb 9bbe 6efe 8abd f127 a73d 7894 3c3e
000002e0: 12db 4e3c ef1f 25be 1b8f 0bbe 3950 803e
000002f0: 7e87 7bbe 75f1 05bd 2672 913d b019 063e
00000300: d4ac be3d 61aa b0bc 760d d93e 023d a7bd
00000310: 213c 803d d58f 2f3f 0cba 5dbe 63e6 fdbd
00000320: 40ea c1be 776b 9dbd cbbf aabd d4bf 60be
00000330: 4687 01be 4235 23be 18fc 39bd e884 6a3e
00000340: e92e 523e 3531 8d3b 4ec7 9dbd ec1d 62be
00000350: e405 cbbd bd50 033e a597 ce3b ad9d 813e
00000360: b5ab bfbd e8b5 3a3e c34c 8ebe 867d 87ba
00000370: 6569 673e 25b8 83be 4181 1abe da5e 1d3e
00000380: 5af8 8cbe f850 58be 2625 9c3c 23d8 0c3d
00000390: 0e1a 09be 22ee 04be 89bb 533e 85f2 063e
000003a0: 7fc3 223e 1b4b 0fbc 9039 573e 4cb5 873e
000003b0: 7322 65be bcc0 a03d d394 40be f840 33be
000003c0: d91a 2f3d 856e 9dbe ddf5 06bd cb61 babd
000003d0: e856 81bd 1edb d4bd 3974 6f3d c9ad e1b8
000003e0: 303e 953e 59d4 77be b1bf 5fbd 6f5f cabd
000003f0: 1bb3 71be 5f83 073e df61 93be e6dd 6abd

prior.s.0.2.bias f4 [16]
-0.0028068742 0.2854089 -0.026150499 -0.019683752 0.16884059 -0.1350882 0.23503196 -0.29679102
0.1304933 -0.06903112 0.13961521 0.1284095 -0.21016884 0.118155666 -0.0075378194 -0.054464765
00000000: 89f3 37bb 1e21 923e 9239 d6bc d23f a1bc
00000010: 8ce4 2c3e 9054 0abe 38ac 703e fef4 97be
00000020: 09a0 053e 3060 8dbd 4af7 0e3e c87d 033e
00000030: 8036 57be 99fb f13d d0ff f6bb 7216 5fbd

prior.s.0.4.weight f4 [1, 16]
0.17883706 0.28927183 0.26372987 0.16931182 -0.041288055 0.12847134 -0.18434116 -0.26287547
-0.22406048 -0.29078588 0.21555553 0.057422485 -0.25926533 -0.0017627048 0.16143128 0.22524668
00000000: 1021 373e 701b 943e 9a07 873e 1460 2d3e
00000010: aa1d 29bd fe8d 033e eec3 3cbe 9d97 86be
00000020: 1c70 65be e3e1 94be 97ba 5c3e d733 6b3d
00000030: 6dbe 84be 8f0a e7ba 3e4e 253e 11a7 663e

prior.s.1.0.weight f4 [16, 1]
-0.64717 0.5576259 0.2997295 0.4836471 -0.18211949 0.3229894 0.3122055 1.0046314
-1.2434037 -0.45109263 -0.68110996 -0.48307085 0.26843876 0.6059623 -0.8292841 0.5409229
00000000: efac 25bf 92c0 0e3f 2576 993e 98a0 f73e
00000010: 887d 3abe de5e a53e 66d9 9f3e c397 803f
00000020: da27 9fbf 9df5 e6be 395d 2ebf 1055 f7be
00000030: ce70 893e 5820 1b3f f64b 54bf ec79 0a3f
