trained_models/GM_timestep_1/model_BetaCVAE_De_CMLP_En_CMLP_Prior_RealNVP_Con_Id_Dis_None_comment_test/BetaCVAE_training_2024-11-01_10-15-24/final_model/model.pt (torch, 59540 bytes, 44 tensors)

encoder.net.0.weight f4 [64, 3]
0	0xbea506dc	-0.32231796
1	0x3f11f3ac	0.5701244
2	0xbf02cfc7	-0.51098293
3	0xbeabd2cd	-0.33559266
4	0x3df6b877	0.120469026
5	0xbd56d218	-0.052446455
6	0xbe0e6bb9	-0.1390828
7	0xbe116758	-0.14199579
8	0xbed1eeaa	-0.410024
9	0x3ed173bf	0.4090862
10	0x3f0a0c07	0.539246
11	0xbe921d21	-0.2853785
12	0x3baaf0b2	0.0052166814
13	0xbf0eba59	-0.55753094
14	0x3ecf45ed	0.40483037
15	0xbec57ab2	-0.38570172
16	0xbe2f75a1	-0.17134716
17	0xbf0f4d40	-0.5597725
18	0x3dbcba5e	0.09215234
19	0x3e02ce44	0.12773997
20	0xbf08fac0	-0.53507614
21	0xbe5c10e6	-0.21490821
22	0x3e89230b	0.26784548
23	0x3e2d83a8	0.16944754
24	0xbef61ee1	-0.48070434
25	0x3e1eae80	0.15496254
26	0x3f034938	0.512836
27	0x3c242f71	0.010021077
28	0x3f20231e	0.62553585
29	0x3f1a9eb6	0.60398424
30	0xbed76ae3	-0.42073736
31	0xbe4ed845	-0.20199688
32	0x3f139501	0.57649237
33	0xbe3a4807	-0.18191539
34	0x3f006a85	0.50162536
35	0xbecea69c	-0.40361488
36	0x3f027206	0.50955236
37	0x3e4119a9	0.18857445
38	0xbf1579c2	-0.5838891
39	0xbf067a9f	-0.52530855
40	0xbf01a4e9	-0.5064226
41	0x3ee4207f	0.44556043
42	0x3e22e11e	0.15906188
43	0x3e57f78c	0.21090525
44	0xbd120f8b	-0.035659354
45	0xbf0bf7ca	-0.5467497
46	0x3ed2ff03	0.41210184
47	0xbe664919	-0.22488822
48	0xbcf944f8	-0.030428395
49	0xbd87d4a7	-0.06632357
50	0x3e204134	0.15649873
51	0x3e66f3a3	0.22553878
52	0xbd69fc5f	-0.057125445
53	0x3ee9b340	0.4564457
54	0x3ec5241f	0.3850412
55	0xbdcf7b89	-0.10130984
56	0x3ed8f881	0.42377093
57	0xbe9d15b2	-0.30680615
58	0xbef6fa02	-0.48237616
59	0x3edb317b	0.42811188
60	0xbcae43f7	-0.021272643
61	0xbd5527e4	-0.052039996
62	0xbec71360	-0.3888197
63	0xbe449169	-0.19196095
64	0xbe97473f	-0.29546544
65	0xbd91d30f	-0.07120334
66	0xbefefdc7	-0.49802992
67	0x3d9fc74b	0.07801684
68	0x3d97a1bc	0.07403895
69	0xbd9a946d	-0.07547841
70	0xbeaa3e25	-0.33250538
71	0xbf47ac9b	-0.7799775
72	0xbe91b730	-0.28460073
73	0x3ea7c88a	0.32770187
74	0x3eb2fea9	0.34959915
75	0x3e2e7177	0.17035471
76	0xbe5308f0	-0.20608878
77	0xbe6de730	-0.23232722
78	0x3d6ce7d0	0.05783826
79	0xbf0d7d2f	-0.5526914
80	0x3eab2d76	0.3343312
81	0x3edd2ff9	0.43200663
82	0x3e289652	0.16463593
83	0x3ecc7342	0.39931685
84	0xbee1a60e	-0.44072002
85	0xbe1ddbfa	-0.15415946
86	0xbe0bb561	-0.1364341
87	0xbdd03e86	-0.101681754
88	0xbc1a690e	-0.009424461
89	0x3ec97e10	0.3935399
90	0xbed2712e	-0.41101974
91	0x3d8aa190	0.06769097
92	0x3cfeaa29	0.031086998
93	0x3e53ae39	0.2067193
94	0xbef220dc	-0.47290695
95	0x3ef1828b	0.4716991
96	0x3f062ffd	0.52416974
97	0xbed070d0	-0.4071107
98	0xbeb682e4	-0.35646737
99	0x3e52740e	0.20552084
100	0x3e7eb9c1	0.24875547
101	0x3e8fb983	0.28071222
102	0xbd20c419	-0.039249513
103	0xbde0d4df	-0.10978102
104	0x3d1d8b54	0.03846295
105	0x3dc38570	0.095469356
106	0xbe756bc5	-0.23966892
107	0xbec31dfb	-0.3810881
108	0xbf01398e	-0.50478446
109	0x3e2f2463	0.17103724
110	0x3d767207	0.06016734
111	0xbd6a79f5	-0.057245214
112	0x3e72c3ce	0.23707506
113	0x3e827ad8	0.25484347
114	0x3d71b89e	0.059013955
115	0xbeaf21a6	-0.3420536
116	0xbe91dcdd	-0.28488818
117	0x3df59918	0.11992091
118	0xbcf2281f	-0.029560147
119	0x3ef66d84	0.4813043
120	0x3e9865c0	0.2976513
121	0xbe0c95ec	-0.13729066
122	0xbf24a716	-0.6431745
123	0x3f0c080d	0.54699785
124	0xbeb5c1bc	-0.3549937
125	0x3f02e152	0.5112506
126	0xbddd27a1	-0.10798574
127	0xbdd66789	-0.104689665
128	0x3cbf6b06	0.023366462
129	0x3df63874	0.12022486
130	0xbeb7bcef	-0.35886332
131	0x3ee3c76d	0.44488087
132	0x3e0d30ea	0.1378819
133	0x3edade5f	0.4274778
134	0xbe3382a0	-0.17530298
135	0xbdcf8726	-0.101331994
136	0xbef8d93f	-0.48603246
137	0xbf05186c	-0.5199039
138	0xbe5633f3	-0.20918255
139	0x3db8f972	0.09031953
140	0x3f11f7a4	0.57018495
141	0x3e0e5caf	0.13902543
142	0x3ef125ef	0.47099254
143	0xbf0115af	-0.5042371
144	0x3b5d373e	0.003375485
145	0x3e0753ba	0.13215533
146	0xbf07efda	-0.5310036
147	0x3e108692	0.14113835
148	0xbd8febc4	-0.070273906
149	0xbe88cec3	-0.26720247
150	0xbe26c08d	-0.1628439
151	0x3e9fe2ed	0.31227818
152	0xbf058d5f	-0.5216884
153	0x3e82d685	0.2555429
154	0x3ec6d00f	0.3883061
155	0xbe56f49b	-0.20991747
156	0x3e0e07ec	0.1387021
157	0xbe5014cf	-0.20320438
158	0xbf41b7fb	-0.75671357
159	0x3e52732d	0.20551749
160	0xbea0c6e9	-0.31401756
161	0x3ed1464a	0.4087394
162	0x3e87091b	0.26374134
163	0xbe209aef	-0.15684102
164	0xbdffe38a	-0.124945715
165	0xbea99f51	-0.3312936
166	0x3d57ffe2	0.052734263
167	0xbc2f0c03	-0.010684016
168	0xbeba943c	-0.3644122
169	0xbe454d97	-0.1926788
170	0x3e1a3100	0.15057755
171	0x3d6858b7	0.05672523
172	0x3f095341	0.5364266
173	0xbe0a1ad4	-0.13486797
174	0x3c065ef8	0.008201353
175	0xbe3ec757	-0.1863073
176	0xbf300b05	-0.68766814
177	0xbf0ad862	-0.54236424
178	0xbe2e48f1	-0.17020012
179	0x3e5f3c85	0.2180043
180	0x3ea56ff1	0.32311967
181	0xbe3337c1	-0.17501737
182	0x3e87fff3	0.2656246
183	0x3e27f700	0.16402817
184	0xbd2d5605	-0.042318363
185	0xbce8fef8	-0.028441891
186	0xbe9c24ed	-0.30496922
187	0xbdffe7ca	-0.12495382
188	0xbec228f4	-0.3792187
189	0x3e296ffc	0.16546625
190	0xbe31510b	-0.17316072
191	0xbf3c2601	-0.7349549

encoder.net.0.bias f4 [64]
0	0x3eb84e72	0.3599735
1	0x3ecfb6d1	0.40569165
2	0x3ed54ed2	0.41661698
3	0x3c799a15	0.01523449
4	0x3e2fd61c	0.1717152
5	0xbf3e0d19	-0.74238735
6	0x3ed64e43	0.41856584
7	0xbef615ff	-0.48063657
8	0xbead5d8b	-0.3386043
9	0xbd569994	-0.052392557
10	0x3e8e0a00	0.27742004
11	0x3e32f1c8	0.17475045
12	0x3c9bdd7d	0.019026512
13	0x3e73c957	0.23807274
14	0x3f09b6b6	0.5379442
15	0xbdff5939	-0.1246819
16	0xbf633319	-0.88749844
17	0x3ef1b1a5	0.47205845
18	0xbf1a2a2e	-0.6022061
19	0x3cbc8337	0.023011787
20	0xbee2462f	-0.4419417
21	0xbef3c3fe	-0.47610468
22	0xbf0d3994	-0.5516598
23	0x3e6a7485	0.22896011
24	0xbf1908c9	-0.5977903
25	0x3f0506f3	0.5196373
26	0xbecab4da	-0.39591104
27	0xbef6fd16	-0.48239964
28	0x3e7fe2b4	0.24988824
29	0xbe468893	-0.19388036
30	0xbea15741	-0.31511882
31	0xbd17f36a	-0.037097372
32	0xbee74ddf	-0.45176598
33	0x3db989d6	0.09059493
34	0xbef9e492	-0.48807198
35	0x3ea0cf8c	0.31408346
36	0x3ec6fe41	0.38865855
37	0xbe4c553a	-0.19954386
38	0x3d3804bd	0.044926394
39	0xbca42513	-0.02003721
40	0xbe4771d9	-0.19477023
41	0xbf1716e7	-0.5901932
42	0x3c8144c8	0.015779868
43	0xba1a664f	-0.0005889879
44	0xbefbd1e4	-0.4918357
45	0xbe62b939	-0.2214097
46	0xbe81f330	-0.2538085
47	0xbee11f2f	-0.43969104
48	0xbedefb5c	-0.43551147
49	0xbe23a165	-0.15979536
50	0xbf00e4c6	-0.5034908
51	0xbed9cc79	-0.42538813
52	0xbefb407a	-0.4907263
53	0xbf042084	-0.51612115
54	0x3e473c17	0.19456516
55	0xbeb8291b	-0.3596886
56	0xbd62f077	-0.055405106
57	0xbddb5360	-0.10709262
58	0xbedcd031	-0.43127587
59	0x3e9cc12c	0.30616128
60	0xbd73ee76	-0.059553586
61	0x3f24df2f	0.6440305
62	0xbf42d449	-0.7610517
63	0xbf2e20e8	-0.6801896

encoder.net.2.weight f4 [64, 64]
0	0x389f0bc2	7.583901e-05
1	0xbce9a4aa	-0.0285209
2	0xbdcc940c	-0.09989175
3	0xbdff44f2	-0.12464322
4	0xbd0df91d	-0.0346614
5	0x3dc81556	0.097696945
6	0x3c2f8df8	0.010715
7	0xbda659f6	-0.081226274
8	0x3dc404cc	0.095712274
9	0xbd8d0119	-0.06884975
10	0x391b8aa1	0.00014833595
11	0xbd6a2a0b	-0.057169
12	0xbcbe37de	-0.023219999
13	0xbcfe71dc	-0.031060152
14	0xbdcc8e69	-0.099881
15	0xbce7a499	-0.028276728
16	0x3d728ff4	0.059219316
17	0xbd9d0723	-0.07667377
18	0x3b2176b7	0.002463741
19	0x3dcd3a90	0.100209355
20	0xbdb0cfbf	-0.086333744
21	0xbda3d28c	-0.07999143
22	0xbda89b9e	-0.082328066
23	0x3cb3bcce	0.021940615
24	0xbc10a63e	-0.008828698
25	0x3cd617dc	0.026134424
26	0xbdf6213e	-0.12018059
27	0x3d6cabc6	0.057781003
28	0xbdbc92e0	-0.09207702
29	0x3c9a4986	0.018833887
30	0xbc6f74b0	-0.014615223
31	0xbdd3b5be	-0.10337399
32	0x3dc916f3	0.0981883
33	0x3d15e7d6	0.03659805
34	0x3dc895a6	0.09794168
35	0xbe0e0cf4	-0.13872129
36	0x3da5fd05	0.081049
37	0x3ccf7db2	0.02532849
38	0xbdafc766	-0.08582954
39	0x3dcd75e9	0.10032255
40	0x3de45d46	0.11150603
41	0xbd8b698e	-0.06807242
42	0xbd822b47	-0.06355911
43	0xbc50b4c7	-0.012738413
44	0x3d55a5af	0.05215996
45	0x3db2cf8a	0.08730991
46	0x3d144083	0.036194336
47	0x3ddcc5fd	0.10779951
48	0xbc5ff70d	-0.013669741
49	0x3db96ca7	0.09053927
50	0xbda27d90	-0.079341054
51	0xbc9bf2f6	-0.019036751
52	0x3d9e5274	0.077305704
53	0x3d335178	0.043778867
54	0xbdd4e573	-0.103953265
55	0xbbde74ac	-0.0067888107
56	0x3d84b5be	0.06479977
57	0x3d878bd7	0.06618469
58	0xbdf2e7c8	-0.11860615
59	0xbd6c6a21	-0.0577184
60	0xbdb3f8c8	-0.08787686
61	0xbdb9a20f	-0.09064113
62	0xbd28f66f	-0.041250642
63	0xbdf85f2c	-0.121275276
64	0x3c1cf8d6	0.0095808115
65	0x3e2e30aa	0.17010751
66	0x3d05531b	0.03254996
67	0xbd07b176	-0.033128224
68	0x3db72703	0.08942988
69	0x3d8cb7b0	0.06870973
70	0x3d0bc58a	0.034123935
71	0x3dae9774	0.08524981
72	0x3dd3bf1d	0.10339186
73	0x3d41217f	0.047151085
74	0xbc1dadce	-0.009623958
75	0x3d3f6da5	0.046735425
76	0xbe04b32a	-0.1295897
77	0x3e1da386	0.1539441
78	0xbb8c733a	-0.004286197
79	0x3b866638	0.004101541
80	0x3d855dd4	0.06512037
81	0xbec42ea0	-0.38316822
82	0xbd954ea0	-0.07290387
83	0x3e13e7cc	0.14443892
84	0x3d9da875	0.07698146
85	0xbd3103b8	-0.043216437
86	0x3dec6fb0	0.1154474
87	0xbcce436d	-0.025178635
88	0xbdcda523	-0.10041263
89	0x3df3c289	0.11902339
90	0xbc4a2d1d	-0.012339857
91	0xbd5c9bc4	-0.053859487
92	0xbc922627	-0.017840458
93	0xbda42121	-0.08014131
94	0xbcc96298	-0.024583146
95	0xbd4cfc2b	-0.050045174
96	0xbe98a6a4	-0.29814637
97	0xbcac8230	-0.021058172
98	0x3e1ad0fe	0.15118787
99	0xbdd1f1ff	-0.10251235
100	0x3db47b62	0.08812596
101	0xbddb24e8	-0.10700399
102	0xbcb6e071	-0.022323819
103	0xbf156e03	-0.5837099
104	0xbd27292a	-0.04081074
105	0xbeb6c1ad	-0.35694638
106	0x3dec8139	0.11548085
107	0xb8b811e9	-8.77714e-05
108	0x3b1af010	0.0023641624
109	0x3e123570	0.14278197
110	0x3da01d69	0.078181095
111	0x3c5f1039	0.013614708
112	0xbd885a2c	-0.06657824
113	0xbdbd380c	-0.09239206
114	0x3d226fff	0.03965759
115	0xbdc7a928	-0.09749061
116	0xbea3ab7b	-0.31966767
117	0x3dc6e2eb	0.0971125
118	0xbeec3ef2	-0.46141773
119	0x3e1d75e0	0.15376997
120	0x3cbe8afc	0.023259632
121	0x3d315cea	0.0433015
122	0xbdd5e27f	-0.10443591
123	0xbd3a7368	-0.045520216
124	0xbed23d68	-0.41062474
125	0xbefe386d	-0.49652424
126	0x3cd1edf4	0.02562616
127	0x3d9fc11a	0.07800503
128	0xbd7b3a98	-0.061335176
129	0xbc0f7d8e	-0.008757962
130	0x3ca9d9dd	0.020733768
131	0xbccd5ef4	-0.025069691
132	0x3c90dedd	0.017684394
133	0x3c804718	0.0156589
134	0xbe109634	-0.14119798
135	0xbd0e1dec	-0.034696504
136	0xbda2c13b	-0.07947012
137	0xbdae1d28	-0.08501655
138	0xbdcf3f91	-0.10119546
139	0x3c18be70	0.009322748
140	0xbde6825d	-0.112553336
141	0xbd970dc4	-0.073756725
142	0xbcf2d685	-0.029643307
143	0x3c99b23d	0.018761748
144	0x3da9bd39	0.082880445
145	0x3d778570	0.06042999
146	0xbe1bde5f	-0.15221547
147	0xbd0de9dd	-0.034646858
148	0x3dd7921c	0.10525915
149	0xbdda5934	-0.106615454
150	0x3cd2ec35	0.025747398
151	0xbdf0c377	-0.11756032
152	0x3d85697a	0.06514259
153	0x3d7e8ef6	0.062148057
154	0x3b89d334	0.0042060856
155	0xbce5cacf	-0.028050808
156	0xbd788805	-0.060676593
157	0x3dd76d79	0.10518927
158	0xbde5bb61	-0.1121738
159	0x3d806f81	0.06271268
160	0xbda72b1d	-0.0816252
161	0xbdb1f1cc	-0.08688697
162	0xbd999b88	-0.07500368
163	0x3df3e17b	0.11908241
164	0xbe0a77f0	-0.13522315
165	0x3de211ac	0.11038527
166	0x3d000e46	0.031263612
167	0x3d8d59d4	0.06901899
168	0xbe0c1779	-0.13680829
169	0xbd946070	-0.072449565
170	0xbd8ffd30	-0.070307136
171	0x3d8cafe2	0.068694845
172	0xbe204767	-0.15652238
173	0x3cc177a2	0.023616616
174	0xbc7d37b0	-0.0154551715
175	0x3da63f6b	0.08117565
176	0xbd5c9fac	-0.053863212
177	0x3d8442cb	0.06458052
178	0xbc5be090	-0.013420239
179	0xbc808c92	-0.01569203
180	0xbdd36020	-0.10321069
181	0x3deb40dd	0.11486981
182	0x3bf1dfd9	0.007381421
183	0x3ddc2e84	0.1075106
184	0xbd08b11d	-0.033372033
185	0xbd30287c	-0.04300736
186	0x3db90b83	0.09035399
187	0x3dd8a4dc	0.105783194
188	0xbbaedb8a	-0.0053362297
189	0x3dc4ee6d	0.096157886
190	0xbd9acd93	-0.075587414
191	0xbd1750a4	-0.03694214
192	0x3d3b065d	0.045660365
193	0x3d9e07aa	0.077163056
194	0x3d949603	0.07255175
195	0xbcd58a5c	-0.026066951
196	0x3e0a8328	0.13526595
197	0x3e15cc6d	0.14628763
198	0x3c61b74e	0.013776613
199	0xbda785ea	-0.08179839
200	0xbbf3a2ff	-0.007435202
201	0xbbf155bd	-0.007364957
202	0xbcfae5d6	-0.030627172
203	0x3d9cc34e	0.07654439
204	0x3debda5b	0.115162574
205	0x3d7d6acc	0.061869428
206	0xbd3da0b7	-0.046295848
207	0x3d8f46d6	0.06995933
208	0xbc4be008	-0.01244355
209	0x3d829479	0.06375975
210	0xbc28b599	-0.0102972025
211	0xbda44d71	-0.08022583
212	0xbae36166	-0.0017347753
213	0xbbe63072	-0.007024818
214	0x3de4388e	0.111435995
215	0x3dea41eb	0.11438354
216	0xbda73fb7	-0.081664495
217	0x3db0da87	0.08635431
218	0x3d6084f2	0.054814287
219	0xbddf07aa	-0.10890134
220	0x3cacec46	0.021108758
221	0xbc3e8675	-0.011628737
222	0x3d40e15e	0.047089927
223	0xbcb9c6f3	-0.022677874
224	0xbe0a0d59	-0.13481654
225	0x3da509a7	0.08058482
226	0x3e12eb4b	0.1434757
227	0xbdd0aefc	-0.101896256
228	0x3e2e10f4	0.16998655
229	0xbddb296e	-0.107012615
230	0xbce71966	-0.028210353
231	0xbcd59a50	-0.026074558
232	0xbd312dff	-0.043256756
233	0x3ceb926e	0.028756347
234	0xbcbd5973	-0.023113942
235	0x3d9c44f3	0.076303385
236	0xbdd6d63b	-0.1049008
237	0x3d8f2249	0.06988961
238	0xbdaa3fc3	-0.08312943
239	0x3dadf93b	0.084948026
240	0x3e1ee0fb	0.1551551
241	0x3e14a483	0.14515881
242	0xbdb609de	-0.08888601
243	0x3d69a391	0.057040755
244	0x3c2a377e	0.010389207
245	0xbdc04f9c	-0.09390184
246	0x3be5acb5	0.0070091137
247	0x3e007b57	0.1254705
248	0x3e1551d3	0.14581995
249	0x3db1cc39	0.086815305
250	0xbd1e239d	-0.038608182
251	0xbaf7c2cf	-0.0018902662
252	0xbd7e9e4a	-0.062162675
253	0xbc4a3309	-0.012341269
254	0x3db863ba	0.09003396
255	0x3d48665a	0.048925735

encoder.net.2.bias f4 [64]
0	0x3da1d9b2	0.0790285
1	0x3c5942e4	0.013260577
2	0xbe00aa7b	-0.12565033
3	0xbdb4f8af	-0.08836495
4	0xba197f1e	-0.0005855429
5	0xbddd3b75	-0.10802356
6	0x3cd1ebbd	0.025625104
7	0xbdea2781	-0.11433316
8	0xbe2d15ae	-0.16902801
9	0xbdfc24c8	-0.12311703
10	0x3e2befae	0.1679065
11	0x3d80b3d2	0.06284298
12	0x3e3d2513	0.18471174
13	0x3d4d87f2	0.050178476
14	0x3c998464	0.018739887
15	0xbba2748d	-0.0049577416
16	0x3d8664ef	0.0656222
17	0x3e72525d	0.23664232
18	0x3d6de46a	0.05807916
19	0x3d84bc42	0.0648122
20	0x3dea4963	0.11439779
21	0xbd8030b8	-0.06259292
22	0x3dbf7133	0.09347763
23	0x3d9daee6	0.07699375
24	0xbd5baf4d	-0.053633977
25	0x3d2285ee	0.039678507
26	0x3e1b1f30	0.15148616
27	0x3d9e2f1a	0.07723828
28	0xbd1150d2	-0.035477467
29	0x3e2eb3e0	0.17060804
30	0xbd2cf508	-0.042225868
31	0xbd739537	-0.059468474
32	0x3d905baa	0.070487335
33	0xbd45d4ac	-0.048298523
34	0x3d6555ad	0.05598991
35	0xbdb2a2de	-0.08722471
36	0x3d403670	0.046926916
37	0xbde84b5e	-0.113425
38	0xbc7135d8	-0.01472231
39	0x3e77732c	0.24165028
40	0xbd836aaa	-0.06416829
41	0x3cb0f017	0.021598859
42	0xbdf08dbf	-0.11745786
43	0xbebe9898	-0.37225795
44	0x3e4739b8	0.19455612
45	0xbdabcd36	-0.0838875
46	0x3d8cc6cd	0.06873856
47	0xbd6207b9	-0.055183146
48	0x3df30f68	0.11868173
49	0xbcc1bf3a	-0.023650754
50	0x3de81bc8	0.11333424
51	0xbe800d6a	-0.25010234
52	0x3db07cdc	0.08617565
53	0x3e0c409b	0.1369652
54	0x3ec94425	0.39309803
55	0x3d44fe74	0.048094228
56	0xbe0d7cc5	-0.13817127
57	0x3dc41fbb	0.095763646
58	0xbdcc0149	-0.099611826
59	0x3dcd8408	0.100349486
60	0xbd035dbb	-0.03207181
61	0x3eaa6c13	0.3328558
62	0xbd901c4e	-0.07036649
63	0xbddd88e7	-0.10817128

encoder.mean_net.weight f4 [2, 64]
0	0x3dac30ea	0.08407767
1	0x3d942cbf	0.07235097
2	0x3d7d49b6	0.061837874
3	0x3cfc7cb0	0.030821174
4	0xbd819bf7	-0.06328576
5	0xbdad82e6	-0.084722325
6	0x3c91f3eb	0.017816504
7	0xbd0f7c0e	-0.035030417
8	0x3ddec802	0.10877992
9	0x3dc71bab	0.09722074
10	0xbde10d46	-0.1098886
11	0x3d945fd3	0.072448395
12	0xbd69e314	-0.057101324
13	0xbdac6848	-0.084183276
14	0xbc5507cb	-0.013002346
15	0xbdd68374	-0.104742914
16	0x3bf7c885	0.0075617456
17	0x3d2521da	0.040315486
18	0x3dd39979	0.10332007
19	0xbc9033b0	-0.017602772
20	0x3dcc8b15	0.09987465
21	0xbddd7406	-0.10813145
22	0xbdfd43c7	-0.12366443
23	0xbe1581ff	-0.14600371
24	0xbd867ccb	-0.06566771
25	0xbd52ef89	-0.05149797
26	0xbc920571	-0.01782486
27	0x3d8a46b8	0.0675177
28	0x3e0e85c1	0.1391821
29	0xbcdab760	-0.026698768
30	0xbd571093	-0.05250604
31	0x3ddff78e	0.10935889
32	0x3dcc7224	0.09982708
33	0x3bb5f5e0	0.005552992
34	0xbc73f1d5	-0.0148892
35	0x3d81d989	0.0634032
36	0xbd1350dc	-0.035965785
37	0xbdc35f0e	-0.095396146
38	0xbd81f4d8	-0.06345528
39	0x3d55b59c	0.05217515
40	0x3dde2aae	0.10847984
41	0x3d8059c8	0.062671244
42	0xbdc2e8e6	-0.09517078
43	0x3df1aa89	0.11800105
44	0x3d381258	0.04493937
45	0xbe0cd446	-0.13752851
46	0x3a91070d	0.0011064723
47	0xbdb58679	-0.08863539
48	0x3dc41828	0.0957492
49	0x3dd40563	0.1035259
50	0xbd3fdea5	-0.04684319
51	0x3d50f000	0.05101013
52	0x3c4318b2	0.011907743
53	0xbd176194	-0.036958292
54	0x3b47f78d	0.0030512542
55	0xbb69de40	-0.003568545
56	0x3de897ba	0.113570645
57	0x3dcb0a3c	0.099140614
58	0xbe1110da	-0.14166585
59	0xbc00a82e	-0.007852597
60	0xbe0f063a	-0.13967219
61	0xbd706bd4	-0.058696583
62	0xbbe034e0	-0.0068422407
63	0x3c87290e	0.016499069
64	0x3cd667db	0.026172569
65	0xbdd50131	-0.10400618
66	0x3bc360d7	0.005962472
67	0xbdcb6d62	-0.099329725
68	0x3e15f8b0	0.14645648
69	0xbca9fe3c	-0.020751111
70	0xbdb76833	-0.08955421
71	0x3dbb5dba	0.09148736
72	0xbd814906	-0.06312756
73	0x3da97017	0.082733326
74	0xbcdcea93	-0.026967322
75	0x3da3242b	0.07965883
76	0xbd92a2f2	-0.071599856
77	0xbdc52ec1	-0.09628058
78	0xbdb3c890	-0.08778489
79	0x3db69835	0.0891575
80	0xbd58cff4	-0.052932695
81	0x3dbd4b35	0.0924286
82	0xbdcba3f5	-0.09943382
83	0x3caffbc5	0.021482358
84	0xbbc29ba0	-0.005938962
85	0x3c96bce6	0.01840062
86	0xbd704d7c	-0.058667645
87	0x3e0382c4	0.12842852
88	0x3e27384d	0.16330071
89	0xbdf89ce1	-0.12139297
90	0xbc740f86	-0.014896279
91	0xbdc92a08	-0.0982247
92	0x3d5cab09	0.05387405
93	0x3d871a4f	0.06596815
94	0x3d0219d5	0.031762917
95	0xbde61c6c	-0.1123589
96	0x3d8d1f79	0.068907686
97	0xbdd24598	-0.1026718
98	0x3e053f1b	0.13012354
99	0x3dee3d7b	0.1163282
100	0xbdb9cfe8	-0.09072858
101	0xbd9b33de	-0.07578252
102	0xbc964780	-0.01834464
103	0x3d883a82	0.066517845
104	0xbd31dbb4	-0.043422416
105	0xbd661398	-0.05617103
106	0xbc3c7948	-0.011503525
107	0x3ce2fda7	0.027708841
108	0xbdb1e46c	-0.08686146
109	0x3d6fd6fd	0.05855464
110	0x3b82b3c9	0.003988717
111	0xbdc116ab	-0.09428152
112	0x3df380d0	0.118898034
113	0xbda8d834	-0.082443625
114	0x3da56bbe	0.08077191
115	0xbd945728	-0.07243186
116	0x3e10b5ea	0.14131895
117	0xbdcf767e	-0.101300225
118	0xbc445cf2	-0.0119850505
119	0x3df60c16	0.12014024
120	0x3ddd5f4c	0.10809192
121	0xbd80826c	-0.06274876
122	0x3d9a4b8d	0.075339414
123	0xbd92b2f3	-0.07163038
124	0xbd1e3dcd	-0.038633157
125	0x3d3eca9b	0.04657994
126	0x3dcbc9a7	0.099505715
127	0x3e074fe9	0.13214077

encoder.mean_net.bias f4 [2]
0	0xbd65c6e0	-0.056097865
1	0xbd2b8ac6	-0.04188039

encoder.log_var_net.weight f4 [2, 64]
0	0xbd65cc92	-0.056103297
1	0xbd83044d	-0.06397305
2	0x3d5cab4a	0.05387429
3	0x3cfef765	0.031123826
4	0x3dd81767	0.10551339
5	0xbd7e9569	-0.062154207
6	0x3c97b826	0.018520426
7	0xbdc15006	-0.094390914
8	0xbd52b670	-0.051443517
9	0x3d82d397	0.06388014
10	0xbb9767c7	-0.0046205255
11	0xbda70790	-0.08155739
12	0xbd9e5c8b	-0.07732495
13	0xbd6f97c5	-0.058494348
14	0xbd9a543b	-0.07535597
15	0x3dbe2ee9	0.09286291
16	0x3d91f8e8	0.07127553
17	0xbe3dcdd9	-0.18535556
18	0x3ddb1a16	0.10698335
19	0xbcc40672	-0.023928855
20	0xbe0b105c	-0.1358046
21	0x3d9e338f	0.07724678
22	0x3d941a46	0.07231574
23	0xbd9a406f	-0.07531821
24	0x3c515c3c	0.012778338
25	0xbdbc0dfc	-0.09182355
26	0x3d1332fd	0.035937298
27	0xbc906a49	-0.017628806
28	0xbd8538c5	-0.065049686
29	0x3d29bb84	0.041438594
30	0x3e2bf292	0.16791752
31	0x3d2bc06a	0.041931547
32	0xbe144f7f	-0.1448345
33	0x3dc11256	0.094273254
34	0xbe0889dd	-0.1333384
35	0xbd9c6bfa	-0.076377824
36	0xbd72ab3c	-0.059245333
37	0x3b6264d1	0.0034544955
38	0x3d858380	0.06519222
39	0xbe5227dc	-0.20523018
40	0xbdd5f08a	-0.1044627
41	0xbdb3d1b1	-0.0878023
42	0x3ddfa800	0.10920715
43	0x3edf781e	0.4364633
44	0xbd81707c	-0.06320283
45	0xbc7b0596	-0.015321156
46	0xbd8ad26f	-0.06778418
47	0xbd721bf7	-0.0591087
48	0xbd7f6bbc	-0.062358603
49	0xbd54eed6	-0.051985584
50	0xbdf38fba	-0.11892648
51	0x3e1d5292	0.1536353
52	0xbd71d19f	-0.0590378
53	0x3afd52b4	0.0019327016
54	0xbdd8cfc8	-0.10586506
55	0x3d598c5c	0.053112373
56	0x3d1ca86a	0.03824655
57	0xbd45001b	-0.048095804
58	0x3e0b0cb5	0.13579066
59	0xbd9c9a30	-0.076465964
60	0x3cf8a3df	0.030351577
61	0xbe0edf11	-0.1395228
62	0xbd26a88d	-0.040688086
63	0x3e07f734	0.13277894
64	0xbd78f574	-0.060780957
65	0x3d265d2d	0.040616203
66	0xbd8f3cfc	-0.06994054
67	0x3dee93ee	0.11649309
68	0x3e6e801c	0.23291057
69	0x3d23a066	0.03994789
70	0xbbec150d	-0.007204658
71	0x3d01f7aa	0.03173033
72	0x3d0de6cd	0.034643937
73	0x3de763ee	0.11298357
74	0xbe262396	-0.16224512
75	0x3db0689d	0.086137034
76	0xbdc5cb78	-0.09657949
77	0x3d18b3b1	0.037280742
78	0xbd83a607	-0.064281516
79	0xbcfaa4e6	-0.030596208
80	0xbd5522d2	-0.05203516
81	0xbe3af039	-0.182557
82	0xbd6703c4	-0.056400076
83	0xbda0ea29	-0.078571625
84	0xbe13cee3	-0.1443439
85	0xbdc41bde	-0.09575628
86	0xbc8319d4	-0.016003527
87	0xbaa8679d	-0.0012848262
88	0xbc7568c4	-0.014978591
89	0x3a45b278	0.00075415475
90	0xbdac7c22	-0.08422114
91	0xbe070b60	-0.13187933
92	0xbd9061d4	-0.07049909
93	0xbde97964	-0.114001065
94	0x3c62243a	0.013802582
95	0xbd6ec415	-0.058292467
96	0xbd4d1c95	-0.050076086
97	0xbc5f3a40	-0.013624728
98	0xbdb2c740	-0.0872941
99	0x3d87ea7b	0.066365205
100	0x3deaff68	0.11474496
101	0xbb7d9660	-0.0038694367
102	0xbd25c67c	-0.040472493
103	0xbe3771c4	-0.17914492
104	0x3c8d9250	0.017281681
105	0xbcdf9927	-0.027294708
106	0xbd30a210	-0.043123305
107	0x3e233eaa	0.15941873
108	0xbdc675b0	-0.09690416
109	0x3db77f39	0.08959813
110	0x3de0a61b	0.10969182
111	0x3dedd4be	0.11612843
112	0xbd953992	-0.07286371
113	0x3d8b28ac	0.06794867
114	0x3d825dcf	0.06365549
115	0x3e5aeef7	0.2138022
116	0xbbd51b82	-0.0065035233
117	0x3d2b24e6	0.041783236
118	0xbdcbfce4	-0.099603444
119	0xbd96a0fc	-0.07354924
120	0x3cf797e6	0.030223798
121	0xbd52d99d	-0.051477063
122	0xbdb05b40	-0.086111546
123	0xbd6b1de7	-0.057401564
124	0x3d63347a	0.055469967
125	0xbe4883e1	-0.19581558
126	0x3de58a7b	0.11208054
127	0x3e4107b0	0.18850589

encoder.log_var_net.bias f4 [2]
0	0xbecfd307	-0.4059069
1	0xbf0394da	-0.51399004

decoder.net.0.weight f4 [64, 3]
0	0xbd21e328	-0.039523274
1	0xbe2c8b04	-0.16849905
2	0xbdcb3d95	-0.09923855
3	0x3f181621	0.59408766
4	0xbd90d783	-0.070723556
5	0x3ee1251a	0.4397362
6	0x3f1f2ecf	0.621808
7	0x3e2895eb	0.16463439
8	0xbf0fe61a	-0.5621048
9	0xbe1b65aa	-0.151755
10	0x3cd65d2a	0.026167471
11	0x3f268c74	0.65058064
12	0x3e8ec95d	0.27888003
13	0xbeb4a4e7	-0.3528206
14	0x3f1afc0e	0.60540855
15	0xbf3b9f04	-0.73289514
16	0x3dc71374	0.09720507
17	0x3e9352f3	0.28774223
18	0xbe3a0cfc	-0.18169016
19	0xbde58ebd	-0.11208866
20	0x3dc9b45c	0.09848854
21	0xbeb27e0a	-0.34861785
22	0xbee312ed	-0.44350377
23	0xbededbeb	-0.4352716
24	0x3f00998d	0.502343
25	0xbe7a048b	-0.24415796
26	0xbec58fe1	-0.38586333
27	0x3f1fba59	0.6239372
28	0x3ed4861c	0.41508567
29	0x3eff7cd8	0.49899936
30	0xbdc51a02	-0.09624101
31	0x3eed795c	0.46381652
32	0x3f3a6f9f	0.7282657
33	0x3ebaab4a	0.36458808
34	0x3f091a93	0.53556174
35	0xbedeeeb4	-0.4354149
36	0xbf2163d9	-0.6304298
37	0xbee13fc9	-0.43993977
38	0xbe948ff5	-0.2901608
39	0x3d9c67b6	0.07636969
40	0x3f2344a9	0.6377664
41	0xbdc0d2a1	-0.09415174
42	0xbdb1302c	-0.08651766
43	0xbf10bd8b	-0.5653922
44	0xbeca50eb	-0.3951486
45	0x3eb51bcc	0.3537277
46	0xbee40603	-0.44535837
47	0xbe497c92	-0.19676426
48	0xbd814514	-0.06312004
49	0xbf134e60	-0.57541466
50	0x3b865deb	0.0041005514
51	0x3e039840	0.12851048
52	0x3f35b998	0.7098632
53	0xbe55c920	-0.20877504
54	0xbef1163a	-0.4708727
55	0x3d89257b	0.06696602
56	0xbeb8c339	-0.36086443
57	0x3ed839bb	0.42231545
58	0xbf08cc3c	-0.53436637
59	0x3f4d2f6d	0.8015049
60	0x3e0e6c3a	0.13908473
61	0xbe5bd08e	-0.21466276
62	0x3f275b56	0.6537374
63	0xbf006dfe	-0.50167835
64	0x3f1f9693	0.62339133
65	0xbe44d618	-0.19222295
66	0x3ebaba95	0.36470476
67	0xbeea06f4	-0.4570843
68	0x3eeff756	0.4686839
69	0xbf0ba0af	-0.5454206
70	0x3e65c507	0.22438441
71	0x3e587a27	0.21140347
72	0xbe39594d	-0.18100472
73	0x3eca8e9d	0.3956193
74	0x3ee92950	0.4553933
75	0x3f267556	0.6502279
76	0xbe9fc75e	-0.31206793
77	0xbe561ffc	-0.20910639
78	0x3e97407b	0.29541382
79	0xbf13fce3	-0.5780775
80	0xbe0f2847	-0.13980208
81	0xbe4a6ac8	-0.19767296
82	0x3ec9a40b	0.39382967
83	0x3d9af0ea	0.07565482
84	0xbe07f586	-0.13277254
85	0xbd911632	-0.070843115
86	0x3f308cc5	0.689648
87	0xbf087829	-0.5330835
88	0xbebc8b08	-0.36824822
89	0xbdc0be55	-0.09411303
90	0xbcf50f28	-0.029914454
91	0xbea5b147	-0.32361814
92	0x3e9ef94c	0.31049573
93	0x3ea42791	0.32061437
94	0xbe9605f0	-0.29301405
95	0x3f008e2e	0.5021695
96	0xbf30bea5	-0.690409
97	0x3db7df0f	0.08978092
98	0x3d29761c	0.041372404
99	0xbdf8cdfb	-0.12148663
100	0x3ee06916	0.43830174
101	0xbf1336cc	-0.5750549
102	0xbeee2ac3	-0.46517
103	0x3ea2d610	0.31803942
104	0xbf203a93	-0.6258938
105	0x3ec8da0b	0.39228854
106	0xbefd3ab5	-0.49458852
107	0x3efbddb9	0.49192598
108	0x3e67f6db	0.22652762
109	0x3eae90ff	0.34094998
110	0xbf050ac3	-0.51969546
111	0xbf031494	-0.51203275
112	0x3f22adb5	0.63546306
113	0xbee4c006	-0.44677752
114	0xbe221dd6	-0.15831694
115	0xbee01990	-0.43769503
116	0xbf0c195a	-0.54726183
117	0x3ef66c06	0.4812929
118	0xbf1a0193	-0.6015865
119	0x3eb2ba57	0.3490779
120	0xbdcce12b	-0.10003885
121	0x3ed0e6c2	0.40801054
122	0xbf2fccbb	-0.6867177
123	0xbeb82f0b	-0.3597339
124	0xbf0bdd91	-0.5463496
125	0xbf24002a	-0.6406275
126	0xbedf9c41	-0.436739
127	0x3f0a2100	0.53956604
128	0x3e5b9d41	0.21446706
129	0x3e99f54e	0.30069965
130	0x3ee32086	0.4436075
131	0xbd073a6d	-0.033014704
132	0x3e10b97e	0.1413326
133	0xbe425841	-0.18978979
134	0x3f617e68	0.88083506
135	0x3ea45b20	0.32100773
136	0x3ef94dcc	0.48692167
137	0xbc8bc0fe	-0.0170598
138	0x3ea47d70	0.3212695
139	0x3ef457a8	0.47723126
140	0xbe35fedd	-0.17773004
141	0xbf0a9b4e	-0.54143226
142	0xbebf94b6	-0.37418145
143	0xbe829476	-0.25503892
144	0x3dd1986d	0.10234151
145	0x3f535bae	0.8256177
146	0x3f10b686	0.5652851
147	0xbef11263	-0.4708434
148	0x3d7ea5f4	0.062169984
149	0x3e488aeb	0.19584243
150	0x3ef94984	0.486889
151	0xbe5498f5	-0.20761473
152	0xbee32b08	-0.44368768
153	0xbf2dcdca	-0.67892134
154	0x3db3ca69	0.08778841
155	0xbece7462	-0.40323168
156	0xbe01b89d	-0.1266808
157	0xbf2073ce	-0.62676704
158	0x3e12e5f3	0.14345531
159	0xbe9969bd	-0.29963484
160	0xbdb83e45	-0.08996252
161	0xbe80c993	-0.2515379
162	0x3edc9aeb	0.43086943
163	0xbf0a703d	-0.5407751
164	0x3edb904c	0.42883527
165	0x3e6911a5	0.22760637
166	0x3ead9c96	0.33908528
167	0xbf210d58	-0.62910986
168	0x3f065fef	0.52490133
169	0x3f3699f4	0.71328664
170	0xbe84b263	-0.25917348
171	0x3f43fcaf	0.7655744
172	0x3e50c680	0.20388222
173	0xbe8aa758	-0.27080798
174	0xbe272300	-0.16321945
175	0x3dda2fee	0.10653673
176	0x3f68103d	0.9064978
177	0xbe6d6eeb	-0.23186843
178	0x3ec7226a	0.38893443
179	0x3ecef09a	0.4041794
180	0x3e3f8d5f	0.18706273
181	0xbc1b5f76	-0.009483209
182	0x3f3d00ee	0.73829544
183	0xbf27cda4	-0.6554816
184	0x3dabee89	0.08395106
185	0xbed77ddd	-0.42088214
186	0x3e5e55e8	0.21712458
187	0xbefbdcf5	-0.49192014
188	0xbf0ebd37	-0.5575747
189	0xbd195060	-0.037430167
190	0x3e98de33	0.29857025
191	0x3f31f5f6	0.6951593

decoder.net.0.bias f4 [64]
0	0xbe1e0e5d	-0.15435167
1	0x3da3af42	0.07992412
2	0xbdff2395	-0.124579586
3	0x3f26ffca	0.65234053
4	0xbe7744ce	-0.2414734
5	0xbee35e3c	-0.44407833
6	0x3f27b557	0.6551108
7	0x3e93c93a	0.2886446
8	0xbe0573c1	-0.13032438
9	0x3e51654c	0.20448798
10	0x3eafef87	0.34362432
11	0xbe6c922d	-0.23102637
12	0x3e8730e2	0.26404482
13	0x3eeafd2a	0.45896274
14	0x3eb3319b	0.34998783
15	0x3f288fa3	0.6584417
16	0x3dd08438	0.10181469
17	0x3f62fd5d	0.8866785
18	0xbdb1e105	-0.08685497
19	0xbe78866d	-0.2427003
20	0x3f74b273	0.9558479
21	0xbda5887f	-0.08082675
22	0x3c70682a	0.014673272
23	0x3f37f976	0.7186502
24	0xbbddc298	-0.006767582
25	0xbef5bd99	-0.47996214
26	0xbe03bbf2	-0.12864664
27	0x3e9a52fa	0.3014143
28	0xbde686f4	-0.11256209
29	0x3d4803fe	0.048831932
30	0xbe666b99	-0.22501983
31	0xbecb98bf	-0.39764974
32	0xbe3cab30	-0.18424678
33	0xbec48b44	-0.383875
34	0xbf0b27eb	-0.54357785
35	0x3d200f42	0.03907705
36	0x3d9db105	0.076997794
37	0x3e2ce56b	0.16884391
38	0xbec92f6a	-0.39293987
39	0x3e9914f1	0.2989879
40	0xbeb7993c	-0.35859096
41	0xbf5ee09f	-0.87061495
42	0xbee7bdec	-0.45262086
43	0xbf0495e1	-0.517912
44	0x3f238dda	0.63888323
45	0xbf1aaf73	-0.60423964
46	0xbecfa1af	-0.40553042
47	0x3e2f5bad	0.17124815
48	0xbd7e54f3	-0.062092733
49	0xbe9795ce	-0.2960648
50	0xbeb866e0	-0.36015987
51	0x3e884617	0.26615974
52	0xbeb778fe	-0.35834497
53	0x3f3e3e6c	0.74314
54	0x3e0d359f	0.13789986
55	0x3e493ff9	0.1965331
56	0xbeffa399	-0.49929503
57	0xbf0d17c3	-0.5511438
58	0x3f3687a5	0.7130073
59	0xbe524b62	-0.20536569
60	0x3f5a3f68	0.85253
61	0x3e943ac1	0.28951076
62	0x3ddbfb5c	0.10741302
63	0x3c8cbd0d	0.01717999

decoder.net.2.weight f4 [64, 64]
0	0xbd30c467	-0.043156054
1	0xbe532bbe	-0.20622155
2	0xbed2d2e4	-0.41176522
3	0xbcefefb0	-0.029289097
4	0x3e09dcf6	0.13463196
5	0xbc338a97	-0.010958335
6	0x3e1acc29	0.15116943
7	0xbabfd046	-0.0014634214
8	0xbd576b90	-0.052592814
9	0xbec5534f	-0.38540122
10	0x3d5c0334	0.053713992
11	0x3d05abb0	0.032634437
12	0x3e45d742	0.19320396
13	0xbe02b9da	-0.12766209
14	0xbd809f01	-0.062803276
15	0x3c2978bf	0.0103437295
16	0xbd42b869	-0.04753915
17	0x3cc0600c	0.023483299
18	0xbf1b50d3	-0.606702
19	0x3deb028a	0.11475094
20	0x3df25182	0.11831953
21	0x3d9885b2	0.07447375
22	0xbd95e127	-0.07318335
23	0x3e27ac33	0.16374283
24	0x3d9206e7	0.07130223
25	0xbdc57153	-0.096407555
26	0x3d499255	0.04921182
27	0x3db6583f	0.0890355
28	0xbc9fe4ab	-0.019518217
29	0x3de90592	0.113780156
30	0xb97f3641	-0.00024338906
31	0xbda306e7	-0.07960301
32	0x3d958ed6	0.073026344
33	0x3e0463ea	0.12928739
34	0xbd6e376b	-0.05815832
35	0x3d3923b8	0.04520008
36	0xbd2795ec	-0.04091446
37	0xbd640029	-0.055664215
38	0x3c62337c	0.01380622
39	0x3d489fe8	0.048980623
40	0x3c11f737	0.008909038
41	0x3db42372	0.08795823
42	0xbe11e88a	-0.14248863
43	0xbdf992f0	-0.12186229
44	0x3dedea32	0.11616935
45	0xbe1e3ee6	-0.15453681
46	0xbe134844	-0.14383036
47	0xbd70236a	-0.058627523
48	0x3d79203a	0.06082175
49	0x3de63923	0.11241367
50	0x3e31c5f0	0.17360663
51	0x3db9dea2	0.09075667
52	0xbcccb2a3	-0.024987524
53	0x3ded5546	0.1158853
54	0xbdda41f1	-0.106571086
55	0xbd95c743	-0.07313397
56	0xbcb7a78d	-0.022418762
57	0xbeaf2957	-0.34211227
58	0x3dfaddf8	0.122493684
59	0x3d9cf1a7	0.07663279
60	0x3ddc3e29	0.107540436
61	0xbdc31d5d	-0.09527085
62	0xbd9f01ab	-0.0776399
63	0x3db80441	0.08985186
64	0x3d8271f7	0.06369393
65	0xbd4ac374	-0.049502805
66	0xbdf33010	-0.118744016
67	0x3e88803d	0.26660338
68	0x3db602c3	0.088872455
69	0x3b10f55a	0.0022118897
70	0x3e42748b	0.1898977
71	0xbd306a8c	-0.04307036
72	0xbd939102	-0.072053924
73	0xbf1f601d	-0.6225603
74	0x3d9fb329	0.07797844
75	0xbfe818cf	-1.8132571
76	0xbcc0c60d	-0.023531938
77	0xbd976d63	-0.07393911
78	0x3dbcb4c7	0.09214168
79	0x3ddcc584	0.107798606
80	0xbd28e63f	-0.041235205
81	0x3c538817	0.012910864
82	0xbec98ecc	-0.39366758
83	0xbaf65f78	-0.0018796762
84	0x3e48f07f	0.19622992
85	0x3d086662	0.033300765
86	0x3deda49e	0.11603664
87	0x3e28dcee	0.16490528
88	0x3d7dda4c	0.061975762
89	0x3baafe1d	0.005218281
90	0x3d03ed94	0.032208994
91	0xbdad9a7d	-0.08476732
92	0x3e0d69a9	0.13809837
93	0x3e0d2e48	0.13787186
94	0xbb42fb6c	-0.002975191
95	0x3d241a86	0.040064357
96	0xbc421fda	-0.011848414
97	0x3c735ea8	0.014854111
98	0xbe1dd72f	-0.15414117
99	0xbd916167	-0.07098656
100	0xbf6360c7	-0.88819546
101	0x3dad778d	0.08470068
102	0xbe3d9aef	-0.18516134
103	0xbd854a3b	-0.06508299
104	0xbe4e6061	-0.20153953
105	0x3d39f9e2	0.045404322
106	0x3cac2978	0.021015868
107	0xbfdddc39	-1.7332832
108	0xbd22359b	-0.039601903
109	0xbf5d01b4	-0.86330724
110	0xbfa75fd0	-1.3076115
111	0x3dd25439	0.102699704
112	0x3d0dbe79	0.034605477
113	0xbc225da4	-0.009910021
114	0x3da4e6e8	0.08051854
115	0x3e26ed26	0.16301402
116	0xbd6491bd	-0.05580305
117	0x3dd74ea2	0.10513045
118	0xbdb7f9e1	-0.089832075
119	0xbfedbd30	-1.857336
120	0xbf9433b3	-1.1578277
121	0xbe981e38	-0.29710555
122	0x3e262f7b	0.1622905
123	0x3e007654	0.12545139
124	0x3e43a2cf	0.19105075
125	0x3ddbbd9d	0.10729525
126	0x3cca29a9	0.024678068
127	0x3e0832aa	0.13300577
128	0xbe70c0d7	-0.23511063
129	0x3e030a57	0.12796913
130	0xbd901e36	-0.07037012
131	0x3dc669f1	0.096881755
132	0xbdae4e89	-0.08511073
133	0xbc51e5b3	-0.012811112
134	0x3e259f24	0.16173989
135	0x3d13ac93	0.03605325
136	0x3db433ea	0.08798964
137	0x3e4945f6	0.19655594
138	0x3d589386	0.052875064
139	0x3e2575fd	0.1615829
140	0x3d1cc40f	0.038272914
141	0xbed51556	-0.4161784
142	0x3c96c9da	0.018406797
143	0xbd048fa6	-0.032363556
144	0x3d305970	0.043054044
145	0xbe47ea35	-0.19522937
146	0x3e0e200d	0.13879414
147	0x3d6ff342	0.058581598
148	0x3e0db69c	0.13839191
149	0xbe42550b	-0.18977754
150	0x3df34863	0.11879041
151	0xbd4fd75d	-0.050742496
152	0x3d081b92	0.033229418
153	0x3d46f862	0.04857672
154	0xbe167845	-0.14694317
155	0xbe12cefd	-0.14336772
156	0xbd593f07	-0.053038623
157	0x3dd8682c	0.10566744
158	0x3df0bbde	0.11754583
159	0xbcc2eca7	-0.023794485
160	0xbd67569a	-0.056479074
161	0xbe86a3fb	-0.26296982
162	0xbca1c389	-0.019746559
163	0x3c106509	0.008813151
164	0x3dc115d9	0.09427995
165	0xbe12eef5	-0.14348967
166	0xbe637a2f	-0.22214578
167	0xbd772538	-0.06033823
168	0xbf297eae	-0.6620892
169	0xbdf17291	-0.1178943
170	0xbe3f640a	-0.18690506
171	0x3e02e71d	0.12783475
172	0x3d08f872	0.03344006
173	0x3df83a76	0.121205255
174	0x3cf61299	0.030038165
175	0x3dc78528	0.097421944
176	0xbe94dea2	-0.29076105
177	0x3e2c841b	0.16847269
178	0xbec9be46	-0.3940298
179	0x3e032339	0.12806405
180	0xbd8bec0e	-0.06832133
181	0xb76c8146	-1.4096795e-05
182	0x3da7e15f	0.08197283
183	0x3d4ec4e7	0.05048075
184	0x3d5b5570	0.053548276
185	0xbc648ae2	-0.013949128
186	0x3e02efaf	0.12786745
187	0xbe529347	-0.20563994
188	0x3e0e8561	0.13918068
189	0xbd4f4872	-0.0506062
190	0xbd872cfc	-0.06600377
191	0x3ddf5318	0.10904521
192	0xbdaa2e60	-0.083096266
193	0x3db88c6f	0.090111606
194	0x3de7f17c	0.11325356
195	0x3decdf64	0.11566046
196	0x3de66511	0.11249746
197	0xbd90256a	-0.07038386
198	0x3d9336cc	0.07188186
199	0xbdbe98b8	-0.093064725
200	0x3d1abdc3	0.037778627
201	0xbd3a6885	-0.045509834
202	0xbdd464f4	-0.10370818
203	0x3cba91d2	0.02277461
204	0xbd9109fc	-0.070819825
205	0xbc48f16e	-0.012264593
206	0xbce659b8	-0.028118953
207	0xbd93c56b	-0.07215389
208	0xbde0c930	-0.109758735
209	0x3ccfdac8	0.025372878
210	0xbc399230	-0.011326358
211	0xbd0f0768	-0.034919173
212	0xbde6897d	-0.112566926
213	0x3dfe10b2	0.12405528
214	0xbd50a33f	-0.050936934
215	0x3d253e1c	0.040342435
216	0xbd833aae	-0.06407677
217	0x3bb5e5f6	0.005551095
218	0xbde30d44	-0.110865146
219	0x3cad5705	0.021159658
220	0xbd90fc38	-0.07079357
221	0x3db16f76	0.086638376
222	0x3d821c8c	0.06353101
223	0xbcac4f26	-0.021033835
224	0xbd9649a6	-0.07338266
225	0xbdea7d0c	-0.11449632
226	0x3d52052c	0.051274464
227	0xbd949f6d	-0.072569706
228	0x3d9f5bab	0.07781156
229	0xbd0d9ad8	-0.0345715
230	0x3d71fdc8	0.059079915
231	0x3c190124	0.009338651
232	0xbd55b5d4	-0.052175358
233	0x3d4ac23c	0.049501643
234	0x3cc3ba0f	0.02389243
235	0xbca0aac8	-0.019612685
236	0x3cf53cab	0.029936155
237	0xbd5e4a19	-0.054269884
238	0x3c9826eb	0.018573245
239	0xbdad98ee	-0.08476435
240	0xbcafee6a	-0.02147599
241	0x3ca5a8a0	0.020222008
242	0xbdab3b22	-0.08360888
243	0x3c73f2c0	0.014889419
244	0xbd474e0c	-0.048658416
245	0xbdee5f88	-0.11639315
246	0x3a883433	0.0010391533
247	0xbdce0111	-0.10058797
248	0xbd50f837	-0.051017966
249	0xbde87f23	-0.113523744
250	0xbd510ce7	-0.051037695
251	0xbda99296	-0.08279912
252	0x3d173f8f	0.03692585
253	0xbd931534	-0.071817786
254	0x3ddb7ad4	0.10716787
255	0xbde78666	-0.11304931

decoder.net.2.bias f4 [64]
0	0x3d32be1e	0.04363834
1	0x3cf11cdb	0.029432705
2	0x3df5297b	0.119708024
3	0xbc57b410	-0.013165489
4	0x3df49202	0.11941911
5	0x3d050ed8	0.03248486
6	0x3e85398f	0.26020476
7	0x3df6b616	0.12046449
8	0x3dd404e7	0.103524975
9	0x3e8fb6c4	0.28069127
10	0x3e364004	0.17797858
11	0xbc9bfadd	-0.01904052
12	0x3e14ff95	0.14550622
13	0xbae6c906	-0.0017607517
14	0x3dded9de	0.108813986
15	0x3d8ba6f5	0.06818954
16	0x3d181b3a	0.03713534
17	0x3d8a5329	0.06754143
18	0x3e15dd7e	0.14635274
19	0xbbb16e0b	-0.0054147295
20	0xbba5c619	-0.0050590155
21	0x3cceba77	0.025235398
22	0x3b89e506	0.00420821
23	0x3e22f8fb	0.15915291
24	0x3c821910	0.015881091
25	0x3e056968	0.1302849
26	0x3dd316bf	0.10307073
27	0x3e537736	0.20650944
28	0x3e2e807e	0.17041203
29	0x3e6145df	0.2199931
30	0x3dd411d9	0.10354967
31	0x3e157125	0.14593942
32	0x3d8f7c91	0.07006181
33	0x3e633d58	0.2219137
34	0x3d05e597	0.032689657
35	0x3e984cb7	0.2974603
36	0x3dfb568c	0.12272367
37	0xbdf63ba6	-0.12023096
38	0x3e8e80f4	0.27832758
39	0x3e8beecd	0.27330628
40	0x3e1b7435	0.15181048
41	0x3cd4aa50	0.025960118
42	0x3e163d5b	0.14671843
43	0x3e84263a	0.25810415
44	0x3e498c29	0.19682373
45	0xbdd96a10	-0.10615933
46	0x3e0a3e94	0.13500434
47	0x3c8dcd45	0.017309794
48	0x3dc01625	0.09379224
49	0x3e857585	0.26066223
50	0xbdf53c1e	-0.11974357
51	0xbd2bc00c	-0.041931197
52	0xbe0cf751	-0.13766219
53	0x3e5c15a5	0.21492632
54	0x3e6c803c	0.23095793
55	0x3e640fb7	0.2227162
56	0x3e315742	0.17318442
57	0x3da51968	0.080614865
58	0x3e6bd001	0.23028566
59	0x3e67afc1	0.22625639
60	0x3e45c7dc	0.19314522
61	0xbd8c70a9	-0.06857426
62	0xbd58eac8	-0.05295828
63	0x3db63ca7	0.08898287

decoder.net.4.weight f4 [2, 64]
0	0x3cf24adb	0.02957671
1	0xbda0d394	-0.07852855
2	0xbde4eece	-0.11178361
3	0xbc92f4d7	-0.017939014
4	0x3e0d5c1b	0.13804667
5	0xbdba60bd	-0.091004826
6	0xbce7e0c9	-0.028305428
7	0xbe355ab2	-0.17710379
8	0xbe0c0824	-0.1367498
9	0x3e769f9d	0.24084325
10	0xbcd2f09d	-0.025749499
11	0x3d4fcdf8	0.050733536
12	0x3d2eeed2	0.042708226
13	0xbc499af1	-0.012305007
14	0xbdaa297e	-0.08308695
15	0xbe80e5a4	-0.25175202
16	0xbe009e35	-0.12560351
17	0xbde86571	-0.113474734
18	0xbe28a55f	-0.16469334
19	0x3d7be1d9	0.061494682
20	0xbdaf141f	-0.0854876
21	0xbe1e170d	-0.1543848
22	0xbcb8b5a7	-0.022547556
23	0xbc88ac66	-0.016683768
24	0xbc483bbb	-0.012221272
25	0xbc501cbe	-0.012702165
26	0xbe36b037	-0.17840658
27	0x3e3cc534	0.18434602
28	0xbe3002d1	-0.17188574
29	0x3ed9082d	0.4238905
30	0xbe57b8df	-0.21066616
31	0x3e82482b	0.25445685
32	0xbd43a3f2	-0.047763772
33	0xbdc6bca1	-0.09703947
34	0xbca121a4	-0.019669361
35	0x3e2c8592	0.16847828
36	0x3ace4d41	0.0015739576
37	0xbc536d4f	-0.012904479
38	0xbe7b48d1	-0.24539496
39	0xbe8bd27d	-0.27309027
40	0xbdd2b8fc	-0.10289189
41	0x3d1a3d13	0.0376559
42	0x3d753802	0.059867866
43	0x3e343136	0.17596897
44	0xbda85b3e	-0.08220528
45	0xbd1d9092	-0.03846795
46	0xbccbbb65	-0.02486963
47	0x3e14d5cb	0.1453468
48	0xbe3dac9c	-0.18522877
49	0x3e9215b1	0.28532174
50	0xbd05e3f4	-0.032688096
51	0xbd9ea592	-0.07746424
52	0xbb30aae6	-0.0026957332
53	0xbdb95b87	-0.090506606
54	0x3dcb0084	0.09912208
55	0xbe20e91e	-0.15713927
56	0xbe858c00	-0.26083374
57	0x3e237d79	0.15965833
58	0xbe47e4c3	-0.1952086
59	0xbd6b9cfa	-0.05752275
60	0x3e6bf90f	0.23044227
61	0x3d1ba083	0.037994873
62	0xbdca97e8	-0.09892255
63	0xbd342680	-0.04398203
64	0x3dea14ca	0.114297464
65	0x3e658816	0.22415194
66	0xbc79ad76	-0.01523911
67	0x3c9a0b96	0.018804353
68	0xbe20c0f6	-0.15698609
69	0xbd58090d	-0.052743006
70	0xbde3905d	-0.111115195
71	0xbe5701a0	-0.20996714
72	0xbe3bc401	-0.18336488
73	0x3e19629f	0.14979027
74	0xbe0e40ab	-0.13891856
75	0xbddd2b34	-0.10799256
76	0x3e893e7b	0.2680548
77	0x3e66ec30	0.22551036
78	0xbba34b80	-0.0049833655
79	0x3ca36a8c	0.019948266
80	0x3e2587b7	0.16165052
81	0x3d6d6e7e	0.0579667
82	0x3e32826e	0.17432567
83	0x3d61fa6c	0.05517046
84	0x3dc833ef	0.097755305
85	0xbc904bc4	-0.017614253
86	0xbe42403f	-0.1896982
87	0xbe68f42e	-0.22749397
88	0xbe09f295	-0.13471444
89	0x3e8d87ad	0.27642575
90	0xbd5f448b	-0.054508727
91	0xbe3df534	-0.18550569
92	0xbd8bcc6e	-0.06826101
93	0x3dea71c9	0.11447484
94	0xbd18b558	-0.037282318
95	0x3c18e465	0.009331797
96	0x3d9e064b	0.07716044
97	0xbe040be3	-0.1289516
98	0xbdd9206a	-0.106018856
99	0xbcdd5369	-0.027017312
100	0xbe1def0f	-0.15423225
101	0x3c8ab509	0.016932027
102	0x3d209449	0.039203916
103	0xbd951295	-0.07278935
104	0x3e037a4f	0.12839626
105	0x3e8a00ab	0.26953635
106	0x3df36b39	0.118856855
107	0xbdd5da58	-0.104420364
108	0x3e73606f	0.23767255
109	0xbda19c75	-0.0789117
110	0xbf0c02ed	-0.54691964
111	0xbd239b0f	-0.039942797
112	0x3abc6ce0	0.0014375709
113	0xbe4e82e3	-0.20167117
114	0xbc5669f6	-0.0130867865
115	0x3db8e0dd	0.09027264
116	0x3cd30244	0.025757916
117	0x3eac6d65	0.3367721
118	0x3e385bde	0.18003795
119	0x3ce96453	0.028490221
120	0x3cf04e77	0.02933429
121	0x3d5fbb02	0.054621704
122	0xbc500f8c	-0.012699019
123	0xbe7d4181	-0.24732019
124	0x3e80afd4	0.25134146
125	0xbe0630a5	-0.13104494
126	0x3d38161c	0.04494296
127	0xbdde7c34	-0.108635336

decoder.net.4.bias f4 [2]
0	0x3cfc4ad9	0.030797409
1	0xbd743af5	-0.05962654

prior.t.0.0.weight f4 [16, 1]
0	0x3f58e952	0.8473102
1	0x3dc41ac6	0.09575419
2	0xbe905036	-0.28186196
3	0xbf1a17ae	-0.6019238
4	0xbd9fe9bc	-0.07808253
5	0x3e718476	0.23585686
6	0xbe6825ba	-0.22670642
7	0xbebb3967	-0.36567232
8	0xbeacd79c	-0.33758247
9	0x3e867d73	0.26267585
10	0x3ec75631	0.38932946
11	0xbf332188	-0.6997304
12	0xbe7dbb4f	-0.24778484
13	0xbf0f7b55	-0.56047565
14	0xbedb697b	-0.42853913
15	0x3ef836ad	0.48479214

prior.t.0.0.bias f4 [16]
0	0x3de09fc7	0.10967975
1	0x3f774b13	0.9659893
2	0xbf2db21b	-0.6784989
3	0x3cf6efb7	0.030143602
4	0x3f586430	0.84527874
5	0xbf57333f	-0.8406257
6	0x3f53e996	0.827783
7	0xbf61f90f	-0.8827066
8	0x3cd57b1a	0.026059676
9	0x3f78cb79	0.97185475
10	0x3f58a5e3	0.84628123
11	0x3ef5184a	0.47870094
12	0x3f6d61e8	0.9272752
13	0xbf76e4c7	-0.96442837
14	0x3f46bad4	0.7762883
15	0xbf7e5bfe	-0.9935912

prior.t.0.2.weight f4 [16, 16]
0	0x3e5f8b04	0.21830374
1	0xbe657c2a	-0.22410646
2	0x3f1ee6ef	0.62071127
3	0x3e05f10b	0.13080232
4	0x3e41dc93	0.18931799
5	0x3e5f91a4	0.21832901
6	0x3e9756d6	0.29558438
7	0x3e406cd6	0.18791518
8	0x3e55cea3	0.20879607
9	0xbd6f7ec6	-0.05847051
10	0x3e4c30a4	0.1994043
11	0x3c1dd0cb	0.0096323
12	0x3e223423	0.15840201
13	0x3f188088	0.59571123
14	0x3e661815	0.22470124
15	0x3e8b97bb	0.272642
16	0xbcc7dcdb	-0.024397304
17	0xbe7edf43	-0.24889855
18	0xbec6170d	-0.3868946
19	0xbcbc6fb7	-0.023002489
20	0xbdf47cc7	-0.11937862
21	0xbe017abd	-0.12644477
22	0x3d3b5a5a	0.045740463
23	0xbdb04d00	-0.086084366
24	0x3df03aab	0.1172994
25	0xba9db084	-0.0012030755
26	0xbe79c7c9	-0.24392618
27	0xbd859582	-0.06522657
28	0xbea114a8	-0.31461072
29	0xbe23758d	-0.15962811
30	0xbe9889b6	-0.29792565
31	0xbe23a11f	-0.15979432
32	0xbe11104c	-0.14166373
33	0xbcfc5544	-0.030802377
34	0xbeabc31f	-0.33547303
35	0x3d4f4ab9	0.05060837
36	0x3e1baffa	0.15203848
37	0xbdbbdb00	-0.0917263
38	0x3c7d1c2a	0.015448609
39	0xbe0e4047	-0.13891707
40	0xbe669b32	-0.2252014
41	0xbe335473	-0.17512684
42	0x3d0d8725	0.034552712
43	0xbe62a574	-0.22133428
44	0xbde6cbae	-0.112693176
45	0xbdeacbdc	-0.11464664
46	0x3cc2165f	0.023692308
47	0x3cc6b394	0.024255551
48	0xbe48c689	-0.19606985
49	0xbde95ede	-0.113950476
50	0xbeee1495	-0.46500078
51	0xbde0fc93	-0.10985675
52	0xbd212d2f	-0.03934973
53	0xbc95056c	-0.018191062
54	0xbe6c5941	-0.23080923
55	0xbe12c928	-0.14334548
56	0xbe7488e8	-0.2388035
57	0x3e956178	0.29175925
58	0xbe94f2a9	-0.29091385
59	0xbdbe2f18	-0.09286326
60	0xbba5290b	-0.005040293
61	0xbedee1af	-0.43531558
62	0xbea4ae2b	-0.3216413
63	0xbdaefe20	-0.08544564
64	0x3e5764cd	0.21034546
65	0x3d875cd6	0.06609504
66	0xbe7aca69	-0.24491276
67	0xbd8288de	-0.063737616
68	0xbdc8ead3	-0.09810414
69	0xbe6ad157	-0.2293142
70	0x3d392bba	0.045207717
71	0x3e241aed	0.16025896
72	0xbdadf4fe	-0.08493994
73	0x3d5c81d9	0.05383477
74	0x3defd34f	0.11710226
75	0xbdb92101	-0.09039498
76	0xbc5a3b37	-0.013319782
77	0x3dfa47c3	0.12220719
78	0xbd661c73	-0.056179475
79	0xbdbcf7ef	-0.09226977
80	0x3d9f2332	0.07770385
81	0xbdb53e5b	-0.08849784
82	0x3e598142	0.21240714
83	0xbd490883	-0.049080383
84	0xbc1c0c6f	-0.009524449
85	0x3f0930c1	0.5359002
86	0xbe55afb2	-0.20867804
87	0xbd9c0c47	-0.07619529
88	0xbe006411	-0.12538172
89	0xbdd0f1fe	-0.10202406
90	0x3d1d0147	0.038331296
91	0x3e8a0584	0.26957333
92	0xbf0edbbd	-0.55804044
93	0x3de85660	0.113446
94	0xbd373fa3	-0.044738423
95	0x3e549a98	0.20762098
96	0xbdfd8b19	-0.123800464
97	0x3e7803f1	0.24220254
98	0xbd53525b	-0.051592212
99	0xbe10e671	-0.14150406
100	0xbda343c8	-0.079719126
101	0x3e387527	0.1801344
102	0x3e5bda6c	0.2147004
103	0xbe3af43f	-0.18257235
104	0xbefd56e0	-0.49480343
105	0x3e11e747	0.14248382
106	0x3e99e288	0.30055642
107	0xbd9cb454	-0.07651582
108	0x3eb548d8	0.35407138
109	0xbeb49826	-0.3527233
110	0xbd84857c	-0.064707726
111	0xbe630ac7	-0.2217208
112	0xbe5f8f30	-0.21831965
113	0xbe6f40c7	-0.23364554
114	0xbedbde59	-0.42943075
115	0xbec98a46	-0.39363307
116	0x3dc880e9	0.09790213
117	0xbe781860	-0.24228048
118	0xbd3fb4b3	-0.046803188
119	0xbeba68e3	-0.36408147
120	0xbd920dfd	-0.07131574
121	0x3d0d86ef	0.03455251
122	0xbe27a295	-0.16370614
123	0xbe7796ec	-0.24178666
124	0x3e32f28e	0.1747534
125	0xbe80a198	-0.25123286
126	0xbe9c9e3c	-0.30589473
127	0xb9e7a706	-0.00044184196
128	0x3e7460f6	0.23865113
129	0xbe13af8d	-0.14422436
130	0x3f2e0a2d	0.67984277
131	0x3e848679	0.25883844
132	0xbdc8eee5	-0.098111905
133	0xbd90889c	-0.07057306
134	0xbe52d1a6	-0.20587787
135	0x3ede65f6	0.43437165
136	0x3d7fcc00	0.06245041
137	0x3e11bd18	0.1423229
138	0xbddacde1	-0.106837995
139	0xbd754da4	-0.059888497
140	0xbefef1ed	-0.4979395
141	0x3f0c655a	0.5484215
142	0x3c8f6f0c	0.017509006
143	0xbc4ce535	-0.012505819
144	0x3df1dd74	0.11809817
145	0x3e455bb4	0.19273263
146	0x3d334e3c	0.043775782
147	0xbd2a9c3e	-0.04165291
148	0xbd843fff	-0.06457519
149	0xbeb36524	-0.35038102
150	0xbe6d675c	-0.2318396
151	0xbd812e84	-0.063077
152	0x3dd89d09	0.10576827
153	0xbe698571	-0.2280481
154	0x3e37d2a5	0.17951448
155	0xbe73e905	-0.23819359
156	0x3e22df7f	0.1590557
157	0xbea7c39b	-0.32766423
158	0xbcdc09b1	-0.02686009
159	0x3e4822a4	0.19544464
160	0x3e5a1527	0.21297131
161	0xbe2ba05f	-0.16760395
162	0x3f076e47	0.52902645
163	0x3eb52589	0.353802
164	0xbda40c07	-0.080101065
165	0x3e7e2e0f	0.24822257
166	0xbd97cdd8	-0.074123085
167	0x3e848f06	0.25890368
168	0xbdd98755	-0.10621516
169	0xbd471192	-0.04860074
170	0x3de02116	0.10943811
171	0x3e9f9b98	0.31173396
172	0x3e5aa794	0.21352988
173	0x3f016c39	0.5055576
174	0x3e8588fb	0.2608107
175	0xbcb6324d	-0.022240782
176	0xbe06c8da	-0.13162556
177	0x3dc1456f	0.094370715
178	0xbeba52a3	-0.36391172
179	0x3e8f9ef8	0.2805097
180	0x3dac2782	0.08405973
181	0xbe609214	-0.21930724
182	0x3ea88097	0.32910606
183	0xbe1bc79e	-0.15212867
184	0xbd888e77	-0.06667798
185	0x3e76d20a	0.24103561
186	0xbe21b4f6	-0.15791687
187	0xbb174e8c	-0.002308759
188	0x3e00c9b8	0.1257695
189	0xbed189ce	-0.4092545
190	0xbe023ac1	-0.12717725
191	0xbf15d00d	-0.58520585
192	0x3e76ad6d	0.24089594
193	0x3e044ab1	0.12919118
194	0xbe680d83	-0.22661404
195	0xbe614dec	-0.22002381
196	0xbe0e771d	-0.13912626
197	0xbf036866	-0.51331174
198	0xbe83b801	-0.2572632
199	0x3df8ff32	0.1215805
200	0x3dc262af	0.09491479
201	0xbe3cd2dc	-0.18439811
202	0xbd3841c9	-0.044984613
203	0xbea98728	-0.3311093
204	0x3e906a8e	0.28206295
205	0xbe4e4daf	-0.20146821
206	0x3e68da9a	0.2273964
207	0xbe035988	-0.12827122
208	0x3bc6969c	0.0060604345
209	0x3ea1d030	0.31604147
210	0xbe465595	-0.19368584
211	0xbe3cbfd2	-0.18432549
212	0x3da72955	0.0816218
213	0x3e05f16b	0.13080375
214	0x3e85d0d4	0.26135886
215	0xbdc6373c	-0.09678504
216	0xbe4b991c	-0.19882625
217	0xbdcf230e	-0.10114108
218	0x3e158245	0.14600475
219	0xbe2bb178	-0.16766918
220	0xbc491f41	-0.012275518
221	0xbec6cd1c	-0.3882836
222	0xbd88bd13	-0.06676688
223	0x3e55b05f	0.20868061
224	0xbf095925	-0.5365165
225	0xbc2316c5	-0.009954159
226	0xbed58796	-0.41705006
227	0x3da1a234	0.07892266
228	0x3e63b09e	0.22235343
229	0xbe87350e	-0.26407665
230	0xbd57b158	-0.052659363
231	0xbeb45a01	-0.35224918
232	0x3db13023	0.086517595
233	0x3f5c2098	0.85987234
234	0xbf6c159c	-0.92220473
235	0x3ea252c5	0.31703773
236	0x3c29789e	0.010343699
237	0xbf026550	-0.5093584
238	0x3de088c4	0.10963586
239	0xbe1a02b2	-0.1504009
240	0xbe7d03d8	-0.24708498
241	0xbcdb476f	-0.02676746
242	0xbf24c56e	-0.64363754
243	0xbe843fba	-0.2582987
244	0xbe65f91f	-0.22458313
245	0x3d38b4a9	0.045094166
246	0xbe39d5e7	-0.18148004
247	0xbec9c95a	-0.39411432
248	0xbea966b1	-0.3308616
249	0xba3d58ff	-0.0007223039
250	0xbe757fd1	-0.2397454
251	0xbe767213	-0.24066953
252	0xbe8ddf43	-0.27709398
253	0xbedb4a10	-0.42829943
254	0xbe288a77	-0.1645907
255	0xbe06192b	-0.13095538

prior.t.0.2.bias f4 [16]
0	0xbd39978b	-0.04531054
1	0xbe361f37	-0.17785345
2	0x3e53b6e4	0.20675236
3	0xbd83828b	-0.064213835
4	0xbb9563c2	-0.004559011
5	0xbe4b7539	-0.19868936
6	0xbc936050	-0.017990261
7	0x3e2fb9c2	0.17160705
8	0xbe29f3bc	-0.16596884
9	0xbe01b2cf	-0.12665866
10	0xbcb9d891	-0.022686275
11	0x3ddea5a5	0.10871438
12	0x3c997fc2	0.018737677
13	0x3d1713ee	0.03688424
14	0xbb5cb973	-0.0033679872
15	0xbdb86bc5	-0.090049304

prior.t.0.4.weight f4 [1, 16]
0	0xbe74b526	-0.23897228
1	0x3e2c3469	0.16816868
2	0x3d077465	0.033069987
3	0x3e2df855	0.16989262
4	0x3de1ad7a	0.11019416
5	0xbdbbb81c	-0.091659755
6	0xbe1f891f	-0.15579651
7	0x3e2e53b1	0.17024113
8	0x3f16d1af	0.589137
9	0x3e335959	0.17514552
10	0xbeb11f4b	-0.34594187
11	0x3ecb2f31	0.39684442
12	0x3d286783	0.04111434
13	0xbd81cb21	-0.06337572
14	0x3f4f34fb	0.80940217
15	0x3e05b43c	0.13057035

prior.t.1.0.weight f4 [16, 1]
0	0x3e527ae0	0.20554686
1	0x3e0b58a8	0.13608038
2	0xbf11d135	-0.5695985
3	0xbe0d007f	-0.1376972
4	0x3f069f63	0.52586955
5	0xbf433ece	-0.7626771
6	0x3f4928ba	0.7857777
7	0x3f597e25	0.84958106
8	0x3f80d752	1.006571
9	0xbf83ed5e	-1.0306814
10	0x3e2d4764	0.16921765
11	0x3f7ca3a8	0.9868722
12	0x3f193033	0.5983917
13	0xbf0a4daf	-0.54024786
14	0xbf35b3b5	-0.70977336
15	0x3f1e5534	0.6184876

prior.t.1.0.bias f4 [16]
0	0x3fa74aef	1.3069743
1	0x3f5c749f	0.8611545
2	0x3e8579e9	0.26069573
3	0x3f9b249e	1.212055
4	0x3f083520	0.5320606
5	0x3f189cf8	0.59614515
6	0x3f4581a7	0.7715096
7	0xbecc5ab9	-0.39912966
8	0x3e56975b	0.20956175
9	0xbf0ba58c	-0.5454948
10	0x3f89ed73	1.0775589
11	0xbe1c7aae	-0.15281174
12	0xbe8ed9d2	-0.2790056
13	0xbfa8215f	-1.3135184
14	0x3fc738eb	1.5564245
15	0xbe9660d5	-0.29370752
